output/best_GCN_model_citeseer.pkl (torch, 477864 bytes, 6 tensors)

conv1.lin_l.weight f4 [16, 3703]
0	0xb9f9cec0	-0.00047647022
1	0x3d789bf5	0.060695607
2	0xbc30c85e	-0.010789959
3	0xbcd760ac	-0.026291214
4	0xbd07218c	-0.032990977
5	0x3c352974	0.0110572465
6	0x3ca15c23	0.019697255
7	0xbe130767	-0.14358293
8	0xbdb0e9a9	-0.08638317
9	0x3be1c7fc	0.006890295
10	0x3bab1398	0.0052208416
11	0xbd6ebff8	-0.058288544
12	0xbd68cc1f	-0.05683529
13	0x3cb110ea	0.02161451
14	0x3c8da513	0.017290628
15	0xbd3dc59a	-0.046331026
16	0xbbfdac3a	-0.0077414783
17	0x3c006c68	0.007838346
18	0xbd96bf33	-0.07360687
19	0x3d5ea80a	0.054359473
20	0xbda515bc	-0.08060786
21	0xbc7355ec	-0.014852028
22	0xbc9401fe	-0.018067356
23	0x3c2654cd	0.010152054
24	0x3c32c4e9	0.010911205
25	0xbd0e8738	-0.034796923
26	0xbdba7dc2	-0.09106018
27	0x3b384dfa	0.002812265
28	0x3ceb99b8	0.028759822
29	0xbc926c3d	-0.017873878
30	0xbd6098f7	-0.05483338
31	0x3d9497e7	0.072555356
32	0x3c092f82	0.008373143
33	0x3ccd7daf	0.025084345
34	0x3ca8d9ed	0.020611728
35	0xbbe00c95	-0.0068374374
36	0x3bc74398	0.006081056
37	0xbd04bcba	-0.032406546
38	0xbb299c5a	-0.0025880546
39	0x3c8a4c4a	0.01688208
40	0x3cca5c13	0.024702108
41	0xbd17e55d	-0.037083972
42	0xbc1b9429	-0.009495773
43	0xbd5fdc24	-0.0546533
44	0x3d27980e	0.040916495
45	0xbcb483bc	-0.022035472
46	0x3ca79621	0.02045733
47	0xbd9fdaa7	-0.078053765
48	0xbc70cf00	-0.01469779
49	0xbd0ea816	-0.034828268
50	0xbcc4ebf3	-0.02403829
51	0xbc6ef078	-0.014583699
52	0xbdaf1f78	-0.08550924
53	0xbca9a8b3	-0.020710325
54	0xbd85d0c0	-0.065339565
55	0x3cbb31d0	0.0228509
56	0xbbe1f4d7	-0.0068956423
57	0x3d78ec74	0.060772374
58	0xbd857ab2	-0.06517543
59	0x3d379cb8	0.044827193
60	0x3ce0bf14	0.027434863
61	0x3ca6b990	0.020352155
62	0xbd2d5b3f	-0.042323347
63	0xbd8edac1	-0.06975318
64	0xbcc173d0	-0.023614794
65	0x3cd0e25b	0.02549856
66	0xbd8f9643	-0.07011082
67	0xbdf0db69	-0.11760599
68	0xbd064542	-0.032780893
69	0xbc83ae24	-0.016074248
70	0x3d0f8185	0.03503563
71	0xbd633885	-0.055473823
72	0xbd8e6d06	-0.06954388
73	0x3d147cc7	0.03625181
74	0x3dd9594c	0.10612735
75	0xbb2e51a0	-0.0026598945
76	0xbca9a146	-0.020706784
77	0xbd557176	-0.052110158
78	0x3d45183c	0.048118815
79	0xbca27404	-0.019830711
80	0xbdffacc2	-0.12484123
81	0xbc15278d	-0.009103668
82	0x3cc58051	0.024109038
83	0xbdabd70a	-0.08390625
84	0xbd3a75e8	-0.0455226
85	0xbd994f50	-0.07485831
86	0xbcfaaabd	-0.030598992
87	0x3d7f736a	0.062365927
88	0xbb82ecb5	-0.003995503
89	0x3c873a0b	0.01650717
90	0x3b88dfdc	0.0041770767
91	0x3d43a7fd	0.047767628
92	0xbdab5730	-0.08366239
93	0x3d553b97	0.052058782
94	0xbd065990	-0.032800257
95	0x3d414a2c	0.047189876
96	0xbd832102	-0.0640278
97	0xbd3e1bea	-0.04641334
98	0x3d562343	0.052279722
99	0xbd60cbd9	-0.054881904
100	0xbd417cf3	-0.0472383
101	0xbd465c52	-0.048427887
102	0xbbf2e3d4	-0.007412413
103	0xbcfc3e50	-0.030791432
104	0xbde946c4	-0.113904506
105	0x3c97fcbc	0.01855313
106	0xbcb901a6	-0.022583794
107	0xbd6c6001	-0.057708744
108	0x3d538d22	0.051648267
109	0x3d78b72d	0.060721565
110	0xbd1e4c9b	-0.038647275
111	0xbcc27417	-0.023736997
112	0x3d14cd13	0.036328387
113	0xbcaaac8e	-0.020834234
114	0x3dd174e0	0.1022737
115	0x3bc08a16	0.005875836
116	0xbc8355fc	-0.016032211
117	0x3c3e285a	0.0116063
118	0xbd0000af	-0.031250652
119	0x3c2f47eb	0.010698299
120	0x3b4baec9	0.0031079522
121	0x3c187e20	0.009307414
122	0x3d94c96b	0.0726498
123	0x3db4f9a3	0.08836677
124	0x3ccb3a75	0.024808148
125	0x3cfff39c	0.031244092
126	0x3ca90b66	0.020635318
127	0xbd1d0b86	-0.038341068
128	0xbd909554	-0.07059732
129	0xbcc97ac4	-0.024594672
130	0xbb96cd8e	-0.0046021407
131	0x3c7021d5	0.014656504
132	0xbce6e5ae	-0.028185692
133	0xbd8d9801	-0.06913758
134	0x3d85de80	0.06536579
135	0xbc572f74	-0.013133872
136	0xbcaf8152	-0.02142397
137	0xbe0e99a3	-0.13925795
138	0xbccb3955	-0.024807611
139	0xbd3cde8f	-0.046110686
140	0xbd8a3200	-0.06747818
141	0x3ce4672f	0.027881233
142	0xbd0c759d	-0.034291852
143	0xbd1ff188	-0.0390487
144	0xbd72ffee	-0.059326105
145	0xbcc910aa	-0.024544079
146	0xbd543626	-0.051809452
147	0xba2b1d44	-0.0006527493
148	0xbc1f4e60	-0.009723276
149	0x3d987ff7	0.07446282
150	0x3d96bf70	0.073607326
151	0xbcaac2f7	-0.02084492
152	0x3d6184d2	0.055058308
153	0xbd7d6fc9	-0.061874185
154	0xbcf7a8ec	-0.030231915
155	0x3c9ba2ea	0.018998582
156	0x3c9f14db	0.019419124
157	0x3c286290	0.010277405
158	0x3d52dbca	0.05147914
159	0xbda74432	-0.08167304
160	0xbc316d15	-0.01082923
161	0xbb5459bb	-0.0032402116
162	0xbd9d3cd7	-0.0767762
163	0x3c1c18a1	0.009527356
164	0x3cf9a1e9	0.030472713
165	0x3d5bc342	0.05365301
166	0xbca7912e	-0.02045497
167	0x3d082a4f	0.033243474
168	0xbd2df50d	-0.042470027
169	0x3c5b5561	0.013387055
170	0xbca6a4d8	-0.020342276
171	0x3d9bbad3	0.07603993
172	0xbd22ea8f	-0.039774474
173	0x3d9a82c1	0.075444706
174	0xbd937abc	-0.07201144
175	0x3d4979dd	0.049188484
176	0x3db091b3	0.0862154
177	0xbc0e32f2	-0.0086791385
178	0xbb937e5c	-0.004501147
179	0xbd002a26	-0.031290196
180	0xbd97019e	-0.07373355
181	0x3d1906a3	0.037359845
182	0x3d526390	0.05136448
183	0x3be50c79	0.0069900122
184	0x3d0603af	0.032718357
185	0xbc20a906	-0.009805923
186	0xbdec7ba3	-0.11547019
187	0x3d8002a2	0.06250502
188	0xbc876489	-0.016527431
189	0x3cddd382	0.027078394
190	0x3da91201	0.08255387
191	0xbd105aea	-0.035242952
192	0xba71a453	-0.00092179066
193	0x3d01ada5	0.03165974
194	0xbb66947e	-0.0035183723
195	0x3cf334cf	0.029688267
196	0x3c0b8e74	0.00851785
197	0x3d79bdc2	0.060971983
198	0xbc988ce4	-0.01862187
199	0xbd25b1d5	-0.040452797
200	0x3cc810ba	0.024422038
201	0x3d806190	0.062686086
202	0x3cdf4e4f	0.02725902
203	0xbc36ff54	-0.011169273
204	0xbd837c05	-0.06420139
205	0xbc9610f4	-0.01831863
206	0xbc3042aa	-0.010758081
207	0xbd844834	-0.06459084
208	0x3ccbca1a	0.024876643
209	0x3da1b291	0.07895387
210	0x3ca9b9de	0.020718511
211	0x3c423bde	0.011855094
212	0xbd45c31c	-0.048281774
213	0xbdb1d84e	-0.08683835
214	0xbcd8636d	-0.026414597
215	0x3c347788	0.011014827
216	0x3c9231d4	0.017846026
217	0xbce42805	-0.027851114
218	0xbd0d9aad	-0.03457134
219	0xbc11c99d	-0.008898166
220	0xbafecfd1	-0.0019440596
221	0xbcc0aae6	-0.02351899
222	0x3d796ebf	0.06089663
223	0x3d6a13e5	0.05714788
224	0xbca00735	-0.019534687
225	0xbc37bfe0	-0.01121518
226	0x3d550b3e	0.052012675
227	0xbce16bfc	-0.027517311
228	0xbca7f14b	-0.0205008
229	0x3ca019cc	0.01954355
230	0xbd5d4bc5	-0.054027338
231	0xbb7aefed	-0.003828998
232	0xbd06f10a	-0.032944717
233	0xbd8650e5	-0.06558398
234	0x3c8fdf68	0.017562583
235	0xbd36e48f	-0.044651564
236	0x3d6da4c3	0.058018457
237	0x3d8e8129	0.06958229
238	0x3d337504	0.043812767
239	0xbb47c81a	-0.003048426
240	0xbc4d156c	-0.012517314
241	0xbd8d47c5	-0.068984546
242	0xbd9cf0bd	-0.07663105
243	0x3ca05758	0.019572899
244	0xbd631cca	-0.055447377
245	0xbc80536f	-0.015664784
246	0xbd75bf6d	-0.05999701
247	0x3ccd6216	0.025071185
248	0x3962a990	0.00021616207
249	0x3b7d32fe	0.003863513
250	0x3dc6c2b6	0.09705107
251	0x3c0541ca	0.008133361
252	0xbd7961a4	-0.060884133
253	0x3cfafb15	0.030637303
254	0xbd1c2783	-0.03812362
255	0x3bde5b53	0.006785789

conv1.lin_l.bias f4 [16]
0	0x3d6fbccf	0.05852967
1	0x3d50d765	0.050986666
2	0xbb382e7e	-0.0028103883
3	0x3d22bac9	0.039728913
4	0x3d5dfeb0	0.054197967
5	0x3d4c1b16	0.04983052
6	0x3d52723a	0.051378466
7	0xbc3cd136	-0.011524489
8	0xbc288715	-0.010286112
9	0x3d05844c	0.03259687
10	0x3d601532	0.054707713
11	0x3d019f8a	0.03164629
12	0xbb0316b1	-0.0020002539
13	0xbc8b65c3	-0.017016297
14	0x3f52b751	0.8231097
15	0x3d65f53f	0.056142088

conv1.lin_r.weight f4 [16, 3703]
0	0xbdd8256a	-0.10554011
1	0x3dc68b19	0.096944995
2	0xbda6938a	-0.081336096
3	0x3d7c9899	0.061668966
4	0xbe9bb1cd	-0.3040909
5	0x3e92c227	0.2866375
6	0x3b5bdf3c	0.0033549806
7	0xbdb3486f	-0.0875405
8	0xbe21c8d0	-0.1579926
9	0xbd08db39	-0.033412192
10	0x3ca3f7dc	0.02001565
11	0xbdec312b	-0.115328155
12	0xbcf45a2c	-0.029828154
13	0xbe250a89	-0.161173
14	0x3e1f48cd	0.15555115
15	0xbda51f62	-0.080626264
16	0xbc9e4340	-0.019319177
17	0x3de19e59	0.110165305
18	0xbe797870	-0.2436235
19	0x3e011a64	0.12607723
20	0xbe99acd2	-0.30014664
21	0x3d20435e	0.039126746
22	0xbd5b7b2b	-0.05358426
23	0x3d24f366	0.040271185
24	0xbcf2ae57	-0.029624147
25	0xbe27625c	-0.16346115
26	0xbecc5fa4	-0.39916718
27	0x3da5ae51	0.08089889
28	0x3dccb15b	0.09994765
29	0x3c665422	0.014058145
30	0x3e48e35e	0.19617984
31	0x3e488056	0.19580206
32	0x3dda7afb	0.10667988
33	0x3e4f74e0	0.20259428
34	0xbde9fba3	-0.11424949
35	0xbddb8f3e	-0.10720681
36	0xbc371eeb	-0.011176805
37	0xbe04ddcc	-0.12975234
38	0xbd847f38	-0.064695776
39	0xbccc6779	-0.024951683
40	0x3dde0c8e	0.10842238
41	0x3d49be28	0.049253613
42	0x3dd5a0ce	0.10431062
43	0xbdaf1ec0	-0.08550787
44	0x3c8aeb60	0.016957939
45	0x3dfb44e3	0.122689985
46	0x3da52ad6	0.08064811
47	0xbdbf1c63	-0.09331586
48	0x3a881f78	0.0010385355
49	0x3c957d7d	0.018248314
50	0x3e1042e0	0.14088011
51	0xbe245391	-0.16047503
52	0xbdb9900d	-0.09060679
53	0x3d8d0a04	0.06886676
54	0xbe2e7785	-0.1703778
55	0xbd1b92e2	-0.037981875
56	0xbe656585	-0.22402008
57	0x3d680d5e	0.056653373
58	0xbe528c61	-0.20561363
59	0x3e88f200	0.2674713
60	0x3e976397	0.2956817
61	0x3e03ff66	0.12890396
62	0xbc9e3426	-0.019311976
63	0xbd92621f	-0.07147621
64	0xbd6aee92	-0.057356425
65	0x3d15bb67	0.036555674
66	0xbe9df5af	-0.30851504
67	0xbeea90ba	-0.45813543
68	0xbe1bda68	-0.15220034
69	0xbdcaffa8	-0.09912044
70	0x3e34091c	0.175816
71	0x3dbd4218	0.09241122
72	0xbe5c3530	-0.21504664
73	0xbd923f89	-0.071410246
74	0x3ea8d71d	0.32976618
75	0xbc1aec39	-0.009455734
76	0xbde1a44d	-0.11017666
77	0xbe1c8617	-0.15285526
78	0xbc2440f7	-0.010025254
79	0xbd99f12f	-0.07516705
80	0xbe0f8923	-0.14017157
81	0xbdafddbc	-0.08587214
82	0x3e3bdd6a	0.18346182
83	0xbe41ff7e	-0.18945119
84	0xbd7898e7	-0.060692694
85	0x3d389254	0.045061424
86	0xbd673b2e	-0.056452923
87	0x3e6d9596	0.23201594
88	0x3de3300a	0.11093147
89	0x3d312cca	0.043255605
90	0xbddd12a9	-0.10794575
91	0x3e55ff92	0.20898274
92	0xbe8b2a41	-0.27180675
93	0xbd98bd81	-0.0745802
94	0xbd00fd7d	-0.031491745
95	0x3e0a12ca	0.1348373
96	0xbde8e256	-0.11371295
97	0x3da45dc6	0.08025698
98	0x3e42738e	0.18989393
99	0xbe1339e1	-0.14377548
100	0xbe27fcb1	-0.16404988
101	0xbd28975f	-0.041159984
102	0x3e82d20e	0.25550884
103	0xbe03900b	-0.12847917
104	0xbe6d6c60	-0.23185873
105	0xbbe564c8	-0.0070005395
106	0xbdb3dfd6	-0.08782928
107	0x3c85a985	0.016316185
108	0x3e80ff81	0.25194934
109	0x3e3a8134	0.1821335
110	0x3e41f3d8	0.18940675
111	0xbe221654	-0.1582883
112	0xbdc5841d	-0.09644339
113	0x3d8636ef	0.065534465
114	0x3e379d8c	0.17931193
115	0xbd38bbb2	-0.045100875
116	0x3e206927	0.15665112
117	0xbcbb4dad	-0.022864187
118	0xbe2c4699	-0.16823806
119	0xbd013c94	-0.031551912
120	0xbe15f5d7	-0.14644562
121	0x3d539b98	0.051662058
122	0x3dc60f9d	0.09670947
123	0x3e50a78e	0.20376417
124	0xbd32837e	-0.043582432
125	0x3d507301	0.050890926
126	0xbd819ede	-0.0632913
127	0xbda9bf68	-0.08288461
128	0xbe3f3c35	-0.18675311
129	0x3df00ff2	0.11721791
130	0x3db94f70	0.090483546
131	0xbcfe23c8	-0.031022921
132	0x3d238165	0.039918322
133	0xbe2277e0	-0.15866041
134	0x3e79d3e8	0.24397242
135	0x3ce2c80a	0.027683277
136	0xbd9a80a4	-0.075440675
137	0xbd04b482	-0.03239871
138	0xbd2d82f2	-0.042361207
139	0x3c93b301	0.018029692
140	0xbd9c3e27	-0.07629042
141	0x3dc21f52	0.0947863
142	0xbe576c89	-0.21037497
143	0xbe7d6038	-0.24743736
144	0xbd84cd47	-0.06484466
145	0xbe211860	-0.15731955
146	0xbe6a63c4	-0.2288962
147	0xbe00006f	-0.12500165
148	0xbcf9d432	-0.03049669
149	0x3ea904ae	0.33011383
150	0x3e7bba2c	0.24582738
151	0xbe255a20	-0.16147661
152	0x3e09a6fb	0.13442604
153	0xbe9d62ca	-0.30739433
154	0xbc6fb4e4	-0.01463053
155	0x3dfc622e	0.12323414
156	0x3d063454	0.032764748
157	0xbe1b7ac0	-0.15183544
158	0x3d72d63f	0.059286352
159	0xbea3990a	-0.31952697
160	0x3d9a1131	0.0752281
161	0xbdd569d8	-0.10420579
162	0xbe26d6fe	-0.1629295
163	0x3df63096	0.12020986
164	0x3e7f762e	0.24947426
165	0x3e892f28	0.2679379
166	0xbd83d6f9	-0.06437487
167	0x3dd1cfd4	0.10244718
168	0xbe48538e	-0.19563124
169	0x3da48375	0.08032886
170	0xbe165962	-0.14682534
171	0x3e169780	0.1470623
172	0xbd622e1c	-0.055219755
173	0x3e1a41c8	0.15064156
174	0x3c046ab7	0.008082083
175	0x3e893afe	0.2680282
176	0x3e746a8f	0.23868774
177	0xbdb82b25	-0.08992604
178	0x3dcb5c72	0.09929742
179	0x3d590038	0.052978724
180	0xbbb1cef4	-0.005426282
181	0x3e59175f	0.21200322
182	0xbce1cb71	-0.027562829
183	0xbad8906d	-0.0016522534
184	0xbcb56ae5	-0.022145698
185	0xbd0692b8	-0.032854766
186	0xbeb7c4c8	-0.3589232
187	0x3e658110	0.22412515
188	0x3d3db036	0.046310626
189	0x3d0d096c	0.034432814
190	0x3d87d46b	0.066323124
191	0xbc553fd2	-0.013015704
192	0x3dd5dd4c	0.104426
193	0x3cd6bda2	0.02621347
194	0xbd6781ff	-0.05652046
195	0x3de48ee4	0.11160067
196	0x3ca34e73	0.019934868
197	0x3dba0918	0.09083766
198	0x3c902222	0.0175944
199	0xbe2cdb0f	-0.16880439
200	0x3e56a1f6	0.2096022
201	0x3e97fe18	0.29686046
202	0xbdd4fd73	-0.10399904
203	0xbe160ba0	-0.14652872
204	0xbdac72e3	-0.084203504
205	0x3b1f5a5a	0.0024315328
206	0x3db3877a	0.087660745
207	0xbe5c0c45	-0.21489055
208	0x3c68a1e2	0.014198752
209	0x3e59e330	0.21278071
210	0xbd17d860	-0.037071586
211	0x3e873a2a	0.26411563
212	0xbe27969d	-0.16366048
213	0xbe020d89	-0.12700476
214	0xbcf95026	-0.030433726
215	0xbc867466	-0.016412925
216	0x3df5d710	0.120039105
217	0xbb8c89f5	-0.0042889067
218	0xbde1c322	-0.11023547
219	0xbe2e8e08	-0.17046368
220	0xbe4591da	-0.19293919
221	0x3e50b70a	0.20382324
222	0x3e08f85b	0.1337599
223	0x3e910df2	0.28330952
224	0xbca2fe0b	-0.019896528
225	0xbe763fa3	-0.24047713
226	0x3e227e4d	0.15868492
227	0xbd61447e	-0.05499696
228	0x3db9592f	0.090502135
229	0x3de6c66a	0.11268313
230	0xbd5d3f34	-0.054015353
231	0xbd693bfe	-0.05694198
232	0xbd66d71f	-0.0563575
233	0x3e858643	0.26078996
234	0x3e388160	0.18018103
235	0xbdadbbc2	-0.084830776
236	0x3d14fa0a	0.03637127
237	0x3dc9de22	0.098568216
238	0x3dccb4a4	0.09995392
239	0xbd80d616	-0.06290834
240	0xbd647808	-0.055778533
241	0xbe97ea7c	-0.29671085
242	0xbd782234	-0.060579494
243	0x3dc9a479	0.09845824
244	0xbd809d80	-0.06280041
245	0x3c35a2b7	0.0110861575
246	0xbe1272c2	-0.14301589
247	0xbad0e9c2	-0.0015938806
248	0x3d910440	0.07080889
249	0x3d0c6553	0.034276318
250	0x3eb2e623	0.34941205
251	0x3ba9c9f6	0.0051815463
252	0xbe7121fd	-0.23548122
253	0xbd33dce4	-0.04391183
254	0xbc6d43ba	-0.014481479
255	0xbc1cf6f0	-0.009580359

conv2.lin_l.weight f4 [6, 16]
0	0xbf315695	-0.6927274
1	0xbf11a6cd	-0.5689514
2	0x2ef8ec8f	1.13197555e-10
3	0xbf2449eb	-0.6417529
4	0xbf342fe8	-0.703856
5	0xbdf9e58a	-0.12201984
6	0x3fb3de2a	1.4052174
7	0xaa2ec400	-1.5522306e-13
8	0x2e1d79a2	3.58057e-11
9	0xbf303f07	-0.6884617
10	0xbed62389	-0.41823986
11	0x3fe58119	1.7930022
12	0xb0210570	-5.8579186e-10
13	0xb05c2446	-8.008708e-10
14	0x3f31d8ad	0.69471246
15	0xbed5cd35	-0.41758123
16	0xbfa6cce8	-1.3031282
17	0x3fc6f740	1.5544205
18	0xaf38a909	-1.6794756e-10
19	0x4014eb7a	2.3268723
20	0xbfacdc5e	-1.3504751
21	0xbf8db4a1	-1.1070749
22	0x3fba0998	1.4534178
23	0xaffbb574	-4.5785564e-10
24	0xaf93674a	-2.6812536e-10
25	0xbf3691bc	-0.71316123
26	0xbfc50ea7	-1.5395097
27	0xbf773c4c	-0.9657638
28	0x3018e29b	5.5619304e-10
29	0xb05103da	-7.603923e-10
30	0x3f0b7297	0.54471725
31	0xbfb87779	-1.441146
32	0x3f8e9b9e	1.1141241
33	0x3f58cffe	0.8469237
34	0xafe3d4a7	-4.1442158e-10
35	0xbf7ab839	-0.9793735
36	0x3f6f6e7c	0.9352796
37	0x3fcf1f7b	1.6181482
38	0x3f8f0341	1.1172868
39	0xaff03f5b	-4.3700762e-10
40	0xaf1fa130	-1.4518231e-10
41	0xbfb85fe9	-1.440427
42	0x3e9c85e4	0.305709
43	0xbff3882e	-1.9025934
44	0x306b7bfd	8.56687e-10
45	0x302f0862	6.367654e-10
46	0xbf935930	-1.1511593
47	0x3e5bbb87	0.21458255
48	0x3fd6baf1	1.67758
49	0xbfb0d4e5	-1.381497
50	0x2eee6fe8	1.08428655e-10
51	0xbf9464e0	-1.1593285
52	0x3fa28fb8	1.270011
53	0x4008b404	2.1359873
54	0xbff84e59	-1.939891
55	0x2f47b8f0	1.8164648e-10
56	0x2f99031e	2.7832753e-10
57	0x3ff73edc	1.9316058
58	0xbff737e6	-1.9313934
59	0x3f594732	0.8487426
60	0x2f1533d6	1.3569887e-10
61	0x2da38508	1.8590032e-11
62	0x3eab0ac7	0.3340666
63	0xbfdd180a	-1.7272961
64	0xbfcf2d76	-1.6185749
65	0x3f1e610e	0.61866844
66	0x302b6826	6.235744e-10
67	0xbff0c195	-1.8809077
68	0xbfc7265e	-1.5558584
69	0xbf94bcd6	-1.1620128
70	0xc006b841	-2.104996
71	0x2ddf9134	2.5416648e-11
72	0x2f961335	2.7298488e-10
73	0xbf8925a5	-1.0714613
74	0x3fc674e2	1.550442
75	0xbfaaa6a7	-1.3332108
76	0xae1dc174	-3.5869488e-11
77	0xaea67dc8	-7.571149e-11
78	0xbea52823	-0.32257184
79	0x3fa21985	1.2664038
80	0x3f43881c	0.7637956
81	0xbf8f730d	-1.1206986
82	0xae90f00d	-6.5910034e-11
83	0x40079b25	2.1188443
84	0x3fbbfdbe	1.4686811
85	0xbfce5c69	-1.6121951
86	0x3e08b273	0.13349323
87	0x2d74d2e0	1.3916618e-11
88	0xaf7244ea	-2.2034255e-10
89	0x4000790e	2.0073886
90	0x40060058	2.093771
91	0x3fe209fb	1.7659296
92	0xaf62b338	-2.0618252e-10
93	0x2dd3efa8	2.4094352e-11
94	0x3e93d251	0.28871396
95	0x400a5be1	2.1618578

conv2.lin_l.bias f4 [6]
0	0xbe068b35	-0.13139041
1	0x3f240523	0.6407034
2	0xbe5fb94c	-0.21848029
3	0x3ecf7bbb	0.40524086
4	0x3f5c8f73	0.86156386
5	0xbf4ba0a1	-0.79541975

conv2.lin_r.weight f4 [6, 16]
0	0xc003865d	-2.055076
1	0xc011a975	-2.2759678
2	0xae93a389	-6.713836e-11
3	0xc01235ad	-2.284526
4	0xc00a8610	-2.1644325
5	0xbf69ae36	-0.9128145
6	0x3fffcbc3	1.9984058
7	0xaf0628eb	-1.2201766e-10
8	0x2d468748	1.1285035e-11
9	0xc00c632e	-2.1935534
10	0xbff2b452	-1.8961279
11	0x4081a3d6	4.0512495
12	0xaf80dc14	-2.343944e-10
13	0x30087c90	4.9653526e-10
14	0xbe104483	-0.14088635
15	0xbfce28fd	-1.6106259
16	0xc043c1f7	-3.0587137
17	0x403131b8	2.7686596
18	0xacbadaf0	-5.310745e-12
19	0x4061aa89	3.5260336
20	0xc034bf06	-2.8241591
21	0xc04da29f	-3.2130506
22	0x4023c6b7	2.5590036
23	0x2f420148	1.7644652e-10
24	0xaf770ebb	-2.2469752e-10
25	0xc017a3d5	-2.3693745
26	0xc051d6ff	-3.2787473
27	0xc03a1e44	-2.9080973
28	0x2f5c3ad7	2.0029788e-10
29	0xafe7ebe9	-4.218628e-10
30	0xbd84a5a2	-0.064769045
31	0xc055d519	-3.3411314
32	0x4051bdac	3.2772017
33	0x404b7988	3.1792927
34	0x2fefe855	4.3638929e-10
35	0xbdc02422	-0.09381892
36	0x40621fea	3.5331979
37	0x406064dd	3.5061562
38	0x40563339	3.3468764
39	0x2feb936c	4.2851e-10
40	0x3016e58d	5.4895893e-10
41	0xc008e073	-2.1386993
42	0x4030d269	2.7628424
43	0xc055c122	-3.339913
44	0xaf985600	-2.7709746e-10
45	0xaf23f1a6	-1.4910614e-10
46	0x3e2d7fe6	0.1694332
47	0x401c762f	2.4447134
48	0x4038480e	2.8793979
49	0xc0377801	-2.8666995
50	0xaf9f78f0	-2.9007863e-10
51	0xc00c3067	-2.1904542
52	0x401a9d74	2.4158602
53	0x404f8800	3.2426758
54	0xc0699682	-3.6498113
55	0x2f92975a	2.6664787e-10
56	0x3036a7b4	6.6449535e-10
57	0x40570040	3.3593903
58	0xc0495012	-3.145512
59	0x40036490	2.0530128
60	0x2fb6a568	3.3223135e-10
61	0x2f5362d4	1.9225449e-10
62	0xbc073eb4	-0.008254696
63	0xc05c2502	-3.4397588
64	0xc04a55ba	-3.1614823
65	0x401cef18	2.4520931
66	0xaf02a10e	-1.1880649e-10
67	0xc03b5bf4	-2.9274874
68	0xc05575ea	-3.335322
69	0xc03d90a4	-2.9619532
70	0xc066896a	-3.602137
71	0x2edb0d00	9.961276e-11
72	0x2edf9b52	1.01684564e-10
73	0xc021de5f	-2.5291975
74	0x405b2e35	3.4246953
75	0xc03eb301	-2.9796755
76	0x2e778290	5.627726e-11
77	0x2f7f46a4	2.3217211e-10
78	0x3d4fa8c4	0.050698057
79	0x4049d845	3.153825
80	0x4001e6fc	2.0297232
81	0xc044c72d	-3.0746567
82	0xaf98f407	-2.782203e-10
83	0x404f34a6	3.2375884
84	0x403bac45	2.9323895
85	0xc04f1e3b	-3.2362201
86	0xbef33a91	-0.4750562
87	0x2f3a679f	1.6953415e-10
88	0x2f05a2a2	1.2154058e-10
89	0x406a82dc	3.664237
90	0x40562f73	3.346646
91	0x4046f7c1	3.1088717
92	0x2f2b3153	1.5569883e-10
93	0xae77417e	-5.6219467e-11
94	0x3c4fa659	0.012673938
95	0x40570212	3.3595014
