output/best_GCN_model_cora.pkl (torch, 94512 bytes, 4 tensors)

conv1.bias f4 [16]
0	0x3dd8a367	0.105780415
1	0x3e060e92	0.13091496
2	0x3debdd88	0.11516863
3	0xbce4ec39	-0.027944671
4	0x3e079ed7	0.13244186
5	0x3da61436	0.08109324
6	0x3df649ca	0.12025793
7	0xbd298042	-0.04138208
8	0x3e147f37	0.14501654
9	0x3de4e679	0.11176772
10	0x3dadf08d	0.08493147
11	0x3dc49291	0.09598268
12	0x3e0c1c10	0.1368258
13	0x3e126fb2	0.14300421
14	0xbc8b2661	-0.016986074
15	0x3e0556d2	0.130214

conv1.lin.weight f4 [16, 1433]
0	0xbe54e501	-0.20790483
1	0x3d90d499	0.070718
2	0x3e06d666	0.13167724
3	0x3e8e9245	0.2784597
4	0xbf897b42	-1.074074
5	0x3c8e84e0	0.017397344
6	0x3e215cef	0.15758108
7	0x3e04baf5	0.12961943
8	0xbea56ecf	-0.32311103
9	0x3e08d312	0.13361767
10	0x3dffbda9	0.12487347
11	0x3ca1ba15	0.019742051
12	0xbeb1b8a1	-0.34711173
13	0x3daaf016	0.08346574
14	0x3cdaa19a	0.026688386
15	0xbccedc82	-0.02525163
16	0x3c138944	0.009004895
17	0xbc4b1249	-0.012394496
18	0x3ca64f9e	0.020301636
19	0x3fd624f1	1.6730024
20	0xbd150ec6	-0.036391042
21	0x3e1e59f2	0.15463999
22	0xbc9faa11	-0.019490274
23	0xbd27b7fa	-0.040946938
24	0x3b5cb37a	0.0033676312
25	0xbe8a90ce	-0.27063602
26	0xbe4d027b	-0.20020477
27	0xbe82d970	-0.25556517
28	0xbd17e13e	-0.037080042
29	0x3d765ab9	0.060145114
30	0xbe6bd2d1	-0.23029639
31	0xbd231c61	-0.039821986
32	0x3d21e8c5	0.039528627
33	0xbd4614dd	-0.04835974
34	0x3e006ffc	0.12542719
35	0x3d49ba30	0.049249828
36	0x3b4ed5aa	0.003156046
37	0x3cb56ad6	0.02214567
38	0x3f4ca5b0	0.7994032
39	0x3dd8768b	0.10569485
40	0xbeefa3f9	-0.4680479
41	0xbf12563d	-0.5716284
42	0x3d88b78d	0.066756345
43	0xbc84e4a8	-0.016222313
44	0xbc985e05	-0.01859952
45	0xbd67096f	-0.05640548
46	0x3d493fb6	0.049133025
47	0xbd82fba2	-0.063956514
48	0xbdfb4be3	-0.122703336
49	0xbe198d46	-0.14995298
50	0xbe225d45	-0.15855892
51	0xbf13af7d	-0.5768965
52	0xbeb2b684	-0.34904873
53	0x3e254c32	0.16142347
54	0xbebd21a9	-0.36939743
55	0x3da782ed	0.08179269
56	0xbe0b2e2a	-0.13591829
57	0x3e76d1d1	0.24103476
58	0xbe8a5c3b	-0.2702349
59	0x3db1a5ef	0.086742274
60	0xbe51668c	-0.20449275
61	0x3e301bca	0.171981
62	0x3d21a1f7	0.039461102
63	0xbda97f27	-0.082762055
64	0xbea0d1be	-0.3141002
65	0x3e90de72	0.28294712
66	0x3da671d0	0.08127177
67	0x3e7ecf3f	0.24883746
68	0x3d7362bd	0.059420336
69	0xbda45610	-0.080242276
70	0xbd801e99	-0.06255836
71	0xbd8745c6	-0.06605105
72	0x3d8be726	0.068311974
73	0x3e67b7c5	0.22628696
74	0xbd272f10	-0.040816367
75	0x3e34705b	0.17620985
76	0xbe2648e3	-0.16238742
77	0xbccafe74	-0.024779536
78	0xbeb3044b	-0.34964213
79	0xbc5d7d25	-0.013518606
80	0x3b2d13ac	0.002640943
81	0xbe7fbe6c	-0.24974984
82	0xbe7406b8	-0.23830688
83	0xbdb084bc	-0.08619067
84	0xbe18b402	-0.14912418
85	0x3e9498b5	0.29022756
86	0x3d499c0a	0.049221076
87	0x3d00a033	0.031402778
88	0xbd451413	-0.048114847
89	0xbad1a54b	-0.0015994696
90	0xbd8f124c	-0.06985912
91	0xbeb193a7	-0.34682962
92	0x3e139d79	0.1441554
93	0xbec1f6e6	-0.3788368
94	0x3d5e82a2	0.0543238
95	0xbd8c5889	-0.06852824
96	0x3bcb8fec	0.006212225
97	0x3d0636ac	0.032766983
98	0x3e63421b	0.22193186
99	0x3f51ca66	0.8194946
100	0xbe327f67	-0.17431413
101	0x3d2323c8	0.039829046
102	0xbe1f5cc9	-0.15562738
103	0x3e6a3746	0.22872648
104	0x3dc7d918	0.09758204
105	0x3c21209a	0.009834433
106	0x3c64ef1c	0.013973024
107	0xbc8543b5	-0.016267637
108	0xbdc25d5d	-0.09490464
109	0x3d38d736	0.045127116
110	0x3d92d26f	0.07169043
111	0x3e0ba9ea	0.13639036
112	0xbd86aa24	-0.065754205
113	0x3d13ce5a	0.036085464
114	0x3dc338fd	0.09532354
115	0x3dee6b25	0.1164153
116	0xbd73118e	-0.059342913
117	0x3cefb8c8	0.029262915
118	0x3ea844d3	0.3286501
119	0x3aec6db8	0.001803807
120	0xbcad09a7	-0.021122767
121	0xbd5dd23d	-0.054155577
122	0xbea480b1	-0.32129434
123	0x3dc956bf	0.09830999
124	0x3e333f96	0.17504725
125	0xbeb692d2	-0.3565889
126	0xbda51de4	-0.08062342
127	0xbe54caab	-0.20780437
128	0x3d4dc923	0.050240647
129	0xbe57963f	-0.21053408
130	0x3e128c74	0.14311391
131	0x3e1cf65b	0.15328352
132	0x3f0a3fc6	0.5400356
133	0xbe9f07a5	-0.3106052
134	0x3d7dc0aa	0.061951317
135	0xbe92e271	-0.28688386
136	0x3dabcde7	0.08388882
137	0x3c6241a6	0.013809597
138	0x3d867412	0.065651074
139	0x3d51dda2	0.051236756
140	0x3f907df8	1.1288443
141	0xbbc17cd3	-0.005904773
142	0x3c2fd44d	0.010731769
143	0x3d0187b5	0.03162356
144	0x3ae2336c	0.0017257757
145	0xbdb2a991	-0.087237485
146	0x3db60297	0.08887213
147	0xbe00d675	-0.12581809
148	0x3d848ff3	0.06472769
149	0x3ecebe44	0.40379536
150	0xbd6a05d3	-0.05713446
151	0xbe5b8178	-0.21436107
152	0x3b12491e	0.0022321413
153	0xbb977ab2	-0.0046227807
154	0xbba5e0db	-0.0050622053
155	0xbd6d8e4a	-0.057997026
156	0xbd7242ee	-0.05914586
157	0x3e22b00d	0.1588747
158	0x3d714a54	0.058908775
159	0x3d15972e	0.03652113
160	0x3dc8ebd2	0.09810604
161	0x3c448009	0.011993417
162	0xbd10363f	-0.035207983
163	0x3e3102d9	0.17286243
164	0x3d16e0cd	0.03683548
165	0x3d0aa46e	0.03384822
166	0x3d284ed5	0.041090805
167	0x3ea11019	0.31457594
168	0x3d1a9330	0.037738025
169	0xbe1ee158	-0.1551565
170	0xbe0f12e1	-0.13972045
171	0x3e36769a	0.1781868
172	0xbe0fb496	-0.14033732
173	0x3d710a69	0.05884782
174	0xbda631c2	-0.08114959
175	0x3cca6ec9	0.02471103
176	0x3d5c4ae1	0.053782348
177	0x3e482ceb	0.19548385
178	0xbd3a511c	-0.04548751
179	0xbe663d94	-0.22484428
180	0x3ca07aa8	0.019589737
181	0x3d160da9	0.03663412
182	0xbdeef171	-0.11667145
183	0xbdcff40f	-0.10153972
184	0xbd5abe22	-0.05340398
185	0xbd5fc982	-0.054635532
186	0xbec268ed	-0.37970677
187	0x3e54a8b1	0.20767476
188	0xbef23c13	-0.47311458
189	0xbe3c8036	-0.18408284
190	0x3c910d80	0.017706633
191	0xbe25f683	-0.16207318
192	0xbdb55278	-0.0885362
193	0xbe3e629a	-0.18592301
194	0xbce15823	-0.027507847
195	0xbdd2530a	-0.10269745
196	0x3e945e75	0.28978315
197	0xbe58d8d9	-0.21176471
198	0x3cb9f0c3	0.022697812
199	0x3cf1daea	0.029523332
200	0xbe2bb77a	-0.1676921
201	0x3d558f64	0.0521387
202	0xbd17df3c	-0.037078127
203	0x3eb752f4	0.35805476
204	0x3d3f848e	0.046757273
205	0xbefcbb88	-0.49361825
206	0x3de2f8c8	0.110826075
207	0xbcfbb321	-0.030725064
208	0x3ed23bc7	0.41061231
209	0x3d34ffdd	0.044189323
210	0x3da1f1fd	0.07907484
211	0xbf0a6b48	-0.5406995
212	0xbdaa3d2d	-0.083124496
213	0x3dd0de93	0.10198703
214	0x3d1bff8c	0.038085505
215	0xbb895d1c	-0.0041920077
216	0x3d8bfa25	0.06834821
217	0x3c460d14	0.012088079
218	0x3e756240	0.2396326
219	0x3e3822f7	0.17982088
220	0x3e32bfa5	0.17455919
221	0xbce23abb	-0.027615895
222	0xbe22d709	-0.15902342
223	0x3d8ffdb7	0.07030814
224	0x3db00929	0.08595497
225	0xbcd16e00	-0.025565147
226	0xbe049209	-0.12946333
227	0x3da6dec8	0.08147961
228	0xbe9196b6	-0.28435296
229	0x3dd2cf75	0.102934755
230	0x3e5c26c3	0.21499161
231	0xbda70c39	-0.08156628
232	0x3d33cbe8	0.043895632
233	0xbe8c5956	-0.27411908
234	0xbec752dd	-0.38930407
235	0xbd85dd44	-0.06536344
236	0xbd8ee890	-0.069779515
237	0xbb2cbea0	-0.0026358739
238	0x3f24ccd0	0.6437502
239	0x3d536e39	0.05161879
240	0x3e2113c6	0.15730199
241	0x3e068c08	0.13139355
242	0x3c33acb8	0.010966472
243	0xbdda813e	-0.10669182
244	0xbd3a9c83	-0.045559417
245	0xbe5bed64	-0.21477276
246	0xbd6e387f	-0.058159348
247	0xbc9ed738	-0.019389734
248	0xbd4fc9b7	-0.05072948
249	0x3d84feee	0.064939365
250	0x3d305b75	0.04305597
251	0xbd43d3bd	-0.04780935
252	0xbd4c99c9	-0.04995135
253	0xbd8fb834	-0.07017556
254	0x3e1ba237	0.15198599
255	0xbe179ddc	-0.14806312

conv2.bias f4 [7]
0	0x3e1571c1	0.14594175
1	0x3eaa75c3	0.3329297
2	0x3f9daddc	1.2318683
3	0xbf33a367	-0.7017121
4	0xbf7b4d35	-0.98164684
5	0x3f237165	0.638449
6	0x3f0ba61c	0.5455034

conv2.lin.weight f4 [7, 16]
0	0xbfe62abd	-1.7981793
1	0xc0318f5a	-2.7743745
2	0x40024c1a	2.0358949
3	0xb1684799	-3.3801142e-09
4	0xc0212bdd	-2.5183022
5	0xc0117890	-2.2729836
6	0x402ab51d	2.6673043
7	0xb349f8ae	-4.7025132e-08
8	0x3f37e9dd	0.7184122
9	0xc024aa3e	-2.5728908
10	0x402bf1d1	2.6866343
11	0x3ff979df	1.9490317
12	0xc014f686	-2.3275466
13	0x3ebd5268	0.36976933
14	0x357287e9	9.03498e-07
15	0x401d649a	2.4592652
16	0x40364337	2.8478525
17	0xbfe4a979	-1.7864219
18	0xc03af339	-2.9210951
19	0xb0cd2633	-1.492657e-09
20	0x401834de	2.3782268
21	0x40371a26	2.860971
22	0xbfee1ba2	-1.8602183
23	0xb2613489	-1.3108669e-08
24	0xc01c78e9	-2.4448798
25	0xc0064262	-2.0978017
26	0xbfa847d1	-1.3146917
27	0x3ff2c033	1.8964905
28	0xc00645e2	-2.0980153
29	0xc014db0a	-2.325869
30	0x32c91397	2.3408388e-08
31	0xbfffa57c	-1.9972377
32	0x402dcb30	2.7155266
33	0xc006dfca	-2.107409
34	0xc02614b6	-2.595014
35	0x30aa0fe8	1.2373649e-09
36	0xc02c09ed	-2.6881058
37	0xc01d9952	-2.462483
38	0xc005e1fe	-2.0919185
39	0x31018a52	1.8850597e-09
40	0xc01745cd	-2.3636353
41	0x4012e83f	2.2954252
42	0xc001bd4f	-2.0271795
43	0xc02f887f	-2.742706
44	0x4033fe15	2.812383
45	0xc00c2a4b	-2.1900814
46	0xb25b4988	-1.2764197e-08
47	0xc009f826	-2.1557708
48	0x3fc9748c	1.5738692
49	0x400d2837	2.2055795
50	0x3fd9a067	1.7002076
51	0xb29be55c	-1.8148675e-08
52	0x3fb0e231	1.3819028
53	0x40185d5c	2.3806982
54	0x3fa68263	1.3008541
55	0x3338825b	4.2959396e-08
56	0x3fc4159b	1.5319093
57	0x40085f61	2.1308215
58	0x4015e36f	2.3420064
59	0xc02f83cc	-2.7424192
60	0x3f46a426	0.7759422
61	0x4008f413	2.139897
62	0xb4acbba6	-3.217403e-07
63	0x3fce3be2	1.6112025
64	0xbf95bef4	-1.1698899
65	0x401752a2	2.3644185
66	0xc03c1fdf	-2.9394453
67	0x325022fc	1.2115148e-08
68	0x4010254a	2.252276
69	0xc031bfac	-2.7773237
70	0x401bbc81	2.4333804
71	0x30a20a6b	1.1790012e-09
72	0x400b495a	2.176352
73	0xc01cba18	-2.4488583
74	0xc031f736	-2.7807136
75	0x4017fe6d	2.374904
76	0x4020424a	2.504046
77	0x4021a928	2.5259495
78	0x33586449	5.0382628e-08
79	0x401ca292	2.4474225
80	0xc02b2134	-2.6739016
81	0xbfdc4536	-1.7208622
82	0x40227be2	2.5388112
83	0x30b7bc00	1.3368435e-09
84	0x4028925f	2.6339338
85	0xc0335d16	-2.8025565
86	0xbffa9194	-1.9575677
87	0xb21b7bf3	-9.05037e-09
88	0xc025a288	-2.5880451
89	0x400eef2d	2.2333481
90	0xc00a1143	-2.1573036
91	0x4003fa7a	2.0621629
92	0xc01f7a92	-2.491856
93	0xc0107d03	-2.25763
94	0x3336d6b4	4.257045e-08
95	0xc002a0bb	-2.0410602
96	0xc01502fe	-2.3283076
97	0xbf73f16f	-0.95290273
98	0x3e84c116	0.25928563
99	0x33091944	3.1920777e-08
100	0xc0281e33	-2.6268432
101	0x3f249970	0.6429663
102	0xc01e69a2	-2.4751973
103	0xb218c36c	-8.891998e-09
104	0x401acdd7	2.4188135
105	0xc00f33e9	-2.2375433
106	0xc004140c	-2.0637236
107	0x4014b6bc	2.3236532
108	0xbf35e068	-0.7104554
109	0xbf30c6c5	-0.690533
110	0x32ad2ac6	2.0159302e-08
111	0xc0037f9d	-2.054664
