output/best_GCN_model_cora_GCN.pkl (torch, 94608 bytes, 4 tensors)

conv1.bias f4 [16]
-0.0004578065 0.0332544 0.05506869 -0.0069019333 0.045106128 0.03417249 -0.0013865773 -0.0005879116
0.044586845 -0.00047221693 0.061416265 -0.008724987 0.04966281 -0.0018162695 0.054587673 0.06394828
00000000: c005 f0b9 c435 083d b58f 613d 9d29 e2bb
00000010: 34c1 383d 74f8 0b3d d0bd b5ba 141e 1aba
00000020: b2a0 363d e293 f7b9 9f8f 7b3d 3ff3 0ebc
00000030: 3b6b 4b3d e40f eeba 5397 5f3d 51f7 823d

conv1.lin.weight f4 [16, 1433]
-3.9754745e-30 -5.26983e-29 -6.3180734e-29 3.683109e-29 3.4674428e-29 -3.7313066e-29 -1.6213339e-29 -2.2488395e-29
-1.1293822e-29 -1.2724243e-29 7.940293e-29 -4.9597162e-29 4.616532e-29 4.423031e-29 6.719726e-29 -4.554513e-29
5.5353435e-29 5.868968e-29 -2.8994854e-29 -5.738807e-29 8.511569e-29 2.1291233e-30 1.9059415e-29 -6.197559e-29
5.9263392e-30 1.7051958e-29 -1.1933365e-28 -1.9957371e-29 -1.1753048e-29 -6.9321754e-29 6.2344784e-29 -2.5746478e-29
4.094293e-29 2.8558742e-29 -1.20452594e-29 -7.995074e-29 -2.8729235e-29 3.6951542e-29 8.13127e-29 3.215768e-29
9.583805e-30 3.038976e-29 3.0287653e-29 -2.1168543e-29 -2.920544e-29 1.4127614e-29 -3.3103417e-29 3.1211103e-29
9.994754e-29 7.2082075e-29 -5.0904555e-30 -7.703841e-29 -6.339022e-29 2.9766963e-29 1.4764561e-29 4.3835727e-29
8.83347e-30 -2.1213414e-29 -3.6300054e-29 -1.8552874e-30 -9.904254e-30 3.9433042e-29 8.5080026e-29 4.5017622e-29
-8.300701e-30 4.7815526e-29 1.95032e-29 4.4983263e-29 -8.1363125e-29 4.9435498e-29 -8.2628967e-29 -2.600793e-29
-1.5496037e-29 5.124834e-29 -9.271535e-30 3.8993202e-29 1.1142346e-29 7.6463307e-29 9.145124e-29 -1.3070864e-29
9.0160683e-29 -4.067401e-29 3.231412e-29 5.610907e-29 -1.607577e-29 4.1614953e-29 4.8071536e-29 2.2248463e-29
-1.0124372e-28 2.6901627e-29 -6.0480086e-29 3.6774248e-29 -2.217938e-29 -4.3209818e-29 -1.4852456e-29 9.499096e-29
2.22178e-29 -1.0848891e-28 2.7688683e-29 5.584983e-30 -5.0177372e-29 -2.8957284e-29 4.7607453e-29 -1.0473801e-29
-4.2164818e-29 -2.9760496e-29 -2.569358e-29 5.8001445e-29 -1.8532449e-29 5.820085e-30 7.3532866e-29 6.5425255e-29
4.8806155e-29 -4.4184384e-29 -2.5381385e-29 -2.4425331e-29 -1.0330699e-28 -1.0362135e-28 8.0843955e-29 1.1371315e-28
3.0981328e-29 4.8423295e-29 -5.233257e-29 -1.0842808e-29 1.3122913e-29 9.152847e-30 -4.3446485e-29 5.071781e-29
-8.446238e-29 -3.9740066e-29 -3.8223393e-29 2.826076e-29 1.2895154e-29 5.329836e-29 4.86875e-29 -6.340887e-29
1.00997256e-29 -2.0034557e-29 2.1351034e-29 1.044845e-28 -1.19632704e-29 -6.5680916e-29 2.7434102e-29 -9.5132e-29
-9.1061146e-29 3.590909e-29 3.4103624e-29 -6.255956e-29 8.358341e-29 4.3130557e-29 3.958934e-29 -4.7554966e-29
-4.491434e-30 -2.3622783e-29 -1.6449723e-29 8.305591e-30 -7.013468e-30 4.9773622e-29 4.4343436e-29 3.2067287e-29
2.1379535e-29 1.0492362e-28 2.1661936e-29 1.721643e-30 -3.627432e-29 -1.7119921e-29 -1.4323854e-29 -2.5821448e-29
-4.4393293e-29 -2.7276455e-29 3.604375e-30 -3.9120678e-29 3.6249393e-29 -6.3092394e-29 1.3277692e-30 -5.1301586e-29
3.3556284e-29 5.0596665e-29 -3.2866903e-29 -2.3297659e-30 5.2690344e-30 6.66958e-30 -1.6415294e-29 2.7807798e-29
2.871808e-29 1.4230994e-29 -2.239044e-29 1.3577248e-29 3.507694e-29 -6.1634814e-30 3.4078413e-29 -9.647711e-30
5.689514e-29 1.5516977e-28 7.299756e-30 2.9820747e-29 1.13457496e-29 6.093313e-29 3.5249255e-29 -2.1011986e-30
-6.0187995e-29 -3.2247988e-29 3.7551337e-29 2.4374253e-29 2.8336755e-29 -1.9379517e-29 -2.6363664e-29 -1.2398758e-29
-8.135327e-30 -7.972033e-29 5.15486e-29 3.4375225e-29 -6.297272e-29 -1.7154758e-29 5.7073375e-29 -4.9799075e-29
-6.447968e-30 -5.780349e-29 -1.6119594e-28 -5.602801e-29 4.381593e-29 -4.6933345e-29 1.320117e-29 -2.6767974e-29
-3.062134e-29 9.593936e-30 -3.9359677e-29 3.493068e-30 -4.941167e-29 1.0877232e-28 1.6952175e-29 1.985142e-29
6.3792517e-31 -5.556932e-29 -1.2360793e-29 1.1232157e-28 2.1046403e-29 3.5167002e-29 -5.6232204e-30 1.412988e-28
-9.097141e-30 -2.9437996e-29 3.1373787e-29 4.6632485e-29 4.2688135e-29 3.79366e-29 -5.0371512e-29 1.3488243e-28
-6.078703e-30 3.680252e-29 6.4334185e-31 -4.8934034e-29 2.5953945e-30 -3.673044e-29 5.910034e-29 6.0220995e-29
00000000: b043 a18e 279b 8590 a42e a090 7dc1 3a10
00000010: fbd1 2f10 2133 3d90 3c6c a48f 360f e48f
00000020: e010 658f 060a 818f 734f c910 cc7c 7b90
00000030: 0316 6a10 3a46 6010 845d aa10 f5f0 6690
00000040: 6f56 8c10 c8cb 9410 7905 1390 fd7e 9190
00000050: 3ecb d710 29bc 2c0e 1249 c10f 7520 9d90
00000060: a066 f00e 6aed ac0f fc45 1791 4c64 ca8f
00000070: 5061 6e8f 64c0 af90 1410 9e10 d78c 0290
00000080: f69a 4f10 5ecf 1010 904e 748f ffb2 ca90
00000090: aeac 1190 d85d 3b10 f626 ce10 0e0f 2310
000000a0: f661 420f 2a18 1a10 9f93 1910 aeac d68f
000000b0: d416 1490 6245 8f0f b1da 2790 5442 1e10
000000c0: aa65 fd10 f1bf b610 507e ce8e c950 c390
000000d0: 9bb6 a090 baef 1610 feba 950f 0746 5e10
000000e0: 002a 330f 2c21 d78f 2a10 3890 d084 168e
000000f0: d4e1 488f 04f3 4710 18b4 d710 3744 6410
00000100: b45b 288f 1a74 7210 34c9 c50f 9d17 6410
00000110: b047 ce90 f2aa 7a10 447d d190 39e0 0390
00000120: 0326 9d8f 13ee 8110 900c 3c8f 12b8 4510
00000130: 5efe 610f 86db c110 40db e710 e78d 848f
00000140: a195 e410 e23d 4e90 20da 2310 de40 8e10
00000150: 1607 a38f 4c03 5310 6cc0 7310 50a0 e10f
00000160: 7757 0091 4f68 0810 d255 9990 b477 3a10
00000170: f6ec e08f 8d19 5b90 2e9f 968f a8d4 f010
00000180: b550 e10f aa86 0991 f765 0c10 c88d e20e
00000190: f46d 7e90 b4d4 1290 0266 7110 166f 548f
000001a0: 10cd 5590 55e7 1690 2c48 0290 170d 9310
000001b0: fdf0 bb8f 3817 ec0e 8f6d ba10 6bdf a510
000001c0: 037a 7710 9c0a 6090 ecb2 0090 c9b3 f78f
000001d0: 09f5 0291 0d5b 0391 baf6 cc10 0726 1011
000001e0: 1018 1d10 0889 7510 c8ad 8490 14eb 5b8f
000001f0: 0815 850f 4ca4 390f c34c 5c90 be95 8010
00000200: 3823 d690 8e81 4990 cdd0 4190 904c 0f10
00000210: bcc5 820f 9d20 8710 fddf 7610 b6c2 a090
00000220: c6d8 4c0f af2c cb8f 7486 d80f 2973 0411
00000230: daa4 728f 5a85 a690 801b 0b10 3330 f190
00000240: 10de e690 aa14 3610 09ed 2c10 7a9b 9e90
00000250: bce8 d310 aab2 5a10 e7bd 4810 e021 7190
00000260: b831 b68e 4090 ef8f ecd1 a68f 1875 280f
00000270: 0240 0e8f db61 7c10 12d9 6010 b899 2210
00000280: 72d0 d80f a901 0511 9aad db0f 20ad 0b0e
00000290: c2ee 3790 db9d ad8f da42 918f 28ee 0290
000002a0: ca19 6190 dd4e 0a90 f835 920e 8b5d 4690
000002b0: 67ce 3710 4ef5 9f90 6071 d70d a210 8290
000002c0: 8c26 2a10 1d47 8010 aea7 2690 5803 3d8e
000002d0: c8bc d50e 7046 070f 8a78 a68f 9600 0d10
000002e0: 339e 1110 c651 900f e810 e38f 8db0 890f
000002f0: 79dc 3110 4005 fa8e 4fcc 2c10 c8ad 438f
00000300: 0f3f 9010 78b3 4411 800e 140f 8b35 1710
00000310: 801e 660f dd7b 9a10 26bc 3210 3078 2a8e
00000320: 3e98 9890 4884 2390 6c68 3e10 2e2f f70f
00000330: 36af 0f10 1a88 c48f fead 0590 087a 7b8f
00000340: 0801 258f 741d ca90 f4b0 8210 984d 2e10
00000350: a2a7 9f90 4cf8 ad8f bdb2 9010 e582 7c90
00000360: c4c7 028f 9c8c 9290 1357 4c91 420c 8e90
00000370: 542c 5e10 f7fa 6d90 32e0 850f d1ba 0790
00000380: c644 1b90 9096 420f c893 4790 18b2 8d0e
00000390: 048c 7a90 a3e2 0911 5dea ab0f 3c51 c90f
000003a0: c004 4f0d 8de2 8c90 e8b4 7a8f 6f62 0e11
000003b0: 966f d50f 6151 3210 dc1a e48e 151e 3311
000003c0: 0e83 388f b444 1590 8115 1f10 6d74 6c10
000003d0: 5e74 5810 865c 4010 f669 7f90 dafb 2a11
000003e0: dc94 f68e 679c 3a10 c0c6 500d 0220 7890
000003f0: 3c90 520e d63e 3a90 50d6 9510 a9ad 9810

conv2.bias f4 [7]
0.24621998 -0.68837357 0.38670295 -0.28283912 -0.30154407 0.6780801 0.426779
00000000: 1721 7c3e 4039 30bf eefd c53e 4ad0 90be
00000010: fc63 9abe a896 2d3f c782 da3e

conv2.lin.weight f4 [7, 16]
1.1215315e-28 -2.5470285 -1.7561824 -2.9815553e-28 -2.8112495 2.8853037 -2.0610195e-28 -1.5530144e-28
4.798944 -3.884019e-28 -2.7739866 -2.9178862e-28 5.1073213 -1.7920102e-28 -2.8552508 -2.6460586
1.0641113e-27 4.748597 -2.0966532 -5.298223e-28 1.5118357 4.037806 -1.9090333e-28 4.3942783e-28
-1.7045288 -6.874458e-29 -2.543658 1.1611535e-28 -1.738851 -2.5906466e-29 -1.6597768 4.835039
1.159328e-27 -3.6329405 5.4789777 4.5775537e-28 -4.1544585 1.219345 -3.1902558e-28 3.9309253e-30
-3.5025108 -1.0964391e-27 3.9720368 -4.5909156e-29 -2.8713784 5.852131e-29 -3.7767003 3.0471709
-5.057081e-28 3.6453807 4.1310515 2.0975894e-27 3.1745038 -5.3098297 -4.6631266e-29 8.303591e-28
3.895265 7.2810114e-28 2.7092876 -2.1169252e-27 4.0077443 1.2335281e-27 2.3069432 2.902828
-9.580564e-28 -3.0601075 -3.0396273 1.3192772e-28 4.6234636 3.2646537 2.6723452e-29 -7.3888013e-28
0.58377737 1.0916461e-28 4.166521 2.7946592e-28 -2.9466174 1.488253e-28 4.093109 -3.3656595
-1.1466463e-27 1.2765499 -1.806957 -9.089369e-29 -3.8626842 -2.8483334 8.608994e-29 -3.070797e-28
-3.2181942 -8.160233e-28 -3.412854 1.7986041e-28 -0.4578372 3.762583e-28 4.5293355 -2.8063264
-8.029264e-28 -0.81636363 -1.626989 4.174447e-29 1.4165782 -2.8581805 1.8067695e-28 1.7639052e-28
-1.5029721 -2.218616e-28 -2.2996511 7.6339664e-28 -1.977229 -7.597246e-29 -2.6828282 -2.0832686
00000000: c72b 0e11 8402 23c0 96ca e0bf 80fa bc91
00000010: 83eb 33c0 d1a8 3840 f4a1 8291 33de 4491
00000020: f390 9940 d02d f691 ff88 31c0 69f1 b891
00000030: 2d6f a340 0e2a 6391 6ebc 36c0 0659 29c0
00000040: 7c9d a812 82f4 9740 912f 06c0 4be8 2792
00000050: d583 c13f b535 8140 acff 7191 9f42 0b12
00000060: 002e dabf c949 ae90 4bcb 22c0 9631 1311
00000070: ab92 debf 845c 0390 9173 d4bf a4b8 9a40
00000080: eeb3 b712 1982 68c0 c953 af40 8711 1112
00000090: 53f1 84c0 7f13 9c3f dc34 ca91 1075 9f0e
000000a0: 2329 60c0 dbbc ad92 da35 7e40 7ec9 6890
000000b0: aac4 37c0 805e 9410 75b5 71c0 d904 4340
000000c0: ea43 2092 eb4d 6940 9331 8440 2b30 2613
000000d0: 122b 4b40 20ea a9c0 d872 6c90 5e93 8312
000000e0: 064c 7940 95be 6612 f864 2d40 58b8 2793
000000f0: 713f 8040 d875 c312 f5a4 1340 efc7 3940
00000100: 62cf 9792 cdd8 43c0 4189 42c0 fe3c 2711
00000110: 6af3 9340 16f0 5040 0681 0710 1429 6a92
00000120: 6f72 153f f161 0a11 2454 8540 f021 b111
00000130: 6195 3cc0 92a8 3c11 c0fa 8240 f766 57c0
00000140: 80b1 b592 fd65 a33f 5e4a e7bf 6171 e690
00000150: 3836 77c0 184b 36c0 9143 da10 88a2 c291
00000160: e5f6 4dc0 d64d 8192 336c 5ac0 0a00 6411
00000170: a369 eabe 667b ee11 51f0 9040 da9a 33c0
00000180: 2175 7e92 35fd 50bf 2d41 d0bf 6cab 5310
00000190: 6f52 b53f 6eec 36c0 0609 6511 ff99 5f11
000001a0: 6461 c0bf 1a9f 8c91 7c2d 13c0 18ee 7112
000001b0: d715 fdbf f29c c090 75b3 2bc0 4654 05c0
