output/best_GCN_model_cora_GCN.pkl (torch, 94608 bytes, 4 tensors)

conv1.bias f4 [16]
0.019544356 0.010503972 -0.017147675 0.01941495 0.019578988 -0.015421033 0.019934125 -0.011775126
0.019655187 0.0192805 0.020004932 0.018958446 0.004684205 0.019624319 -0.01659549 0.018856343
00000000: 7c1b a03c da18 2c3c 4879 8cbc 1a0c 9f3c
00000010: 1d64 a03c 80a8 7cbc e44c a33c 75ec 40bc
00000020: ea03 a13c 24f2 9d3c 62e1 a33c be4e 9b3c
00000030: f67d 993b 2ec3 a03c 44f3 87bc 9e78 9a3c

conv1.lin.weight f4 [16, 1433]
0.035045236 -0.02294278 -0.0100925965 0.043316357 0.041943885 0.040458113 -0.04392637 -0.01768748
-0.022471022 -0.0036639236 0.042493433 0.018738028 -0.017168382 -0.013214891 0.017488293 -0.020708753
0.036323868 -0.00067451876 -0.043772187 0.050828878 0.024699938 -0.0028208722 -0.016791204 -0.02872172
0.0012140378 0.007621485 -0.04076302 0.012100898 0.009535469 -0.0116535425 -0.00370803 0.0029428632
0.041710347 0.011495807 0.04166691 -0.018002063 -0.023142148 -0.010564074 -0.013193242 0.025627632
-0.029211141 0.01615404 -0.02665552 0.02379737 -0.026752565 -0.041330878 -0.041333504 0.04623465
-0.00047324598 -0.02001181 -0.0456303 -0.05048386 0.065962695 0.009301555 0.020331878 0.022268318
-0.015753165 0.02948923 0.02064345 -0.014121223 0.04284497 0.032563202 -0.017661257 -0.01390344
-0.041721612 -0.033221085 -0.041111182 -0.03175131 0.016463248 0.004741437 0.031710833 0.01338844
0.008563471 -0.043447834 -0.041403137 -0.034593277 -0.05647498 0.042018156 0.0058057 0.026963279
0.012219207 0.025310706 -0.009868313 -0.019571237 -0.012503331 -0.021806428 0.05849529 0.0141070215
-0.011489652 0.036927283 -0.006281364 -0.01133426 -0.020393081 0.0072569656 -0.023216179 -0.039045278
0.044981934 0.07094483 0.033952277 -0.039551206 0.02587861 0.048272096 0.0059160553 0.0057113552
0.040389642 0.02513443 0.06361487 -0.0133221205 -0.030436061 0.040648755 0.049142867 -0.015085325
0.002880882 0.01586261 0.012214938 0.07929798 0.01582568 -0.0107796285 0.052246444 0.02147723
0.043128293 0.015094951 -0.005538715 0.054190136 -0.054131508 -0.0023136279 0.017082851 -0.01852175
-0.025507778 -0.047606945 -0.0014826702 0.022309758 -0.040709905 0.062326852 -0.028876001 0.066763945
-0.015406755 -0.0145743145 -0.026548613 -0.065120794 -0.017909981 0.0016881311 -0.045625348 0.032213897
0.0024348982 -0.038708817 -0.044754837 -0.043716427 -0.011079656 -0.06929484 -0.024057053 0.01912684
0.0064926017 0.028980147 0.009976553 0.025672201 0.00097235385 -0.018331729 -0.005818975 0.008845897
0.038470343 0.019750535 -0.0068063885 -0.0005855467 0.034035277 0.013323838 0.050518755 0.06756845
0.05623658 0.012326121 0.023924574 -0.022675417 -0.004242681 -0.029916525 -0.0725637 0.00045120157
0.030115617 0.03089457 0.07454648 -0.00741834 0.016364668 0.070474245 -0.040436864 -0.04015718
-0.021226851 -0.027636226 -0.0044871056 0.0367707 -0.021402515 0.031222753 0.028349347 -0.03192522
0.01763799 0.011915679 -0.039203625 0.020344026 0.042852636 0.031533945 0.016440125 -0.042383987
0.0025775656 -0.017396193 0.0060993647 -0.04449495 0.045507915 0.05179016 0.029302612 0.035079192
-0.03998803 0.021035861 0.022155996 -0.019417953 0.029326111 0.037973136 0.030967327 -0.034505107
-0.038049493 0.06816493 0.0428345 0.029049356 -0.01935593 0.079924114 -0.01809811 0.001311007
0.012784568 0.052901782 0.029374564 0.01866062 0.017239928 -0.016345322 0.047299087 0.017009549
-0.004338665 -0.019437954 0.043784335 -0.019831128 0.03589065 0.026364446 0.059617113 -0.03099487
-0.04426547 0.03849718 0.03117485 0.0068814936 -0.0011836365 0.023958651 -0.035450067 0.030112589
-0.039360188 0.029811533 0.071927786 -0.019243391 0.040601477 0.033460695 0.005687479 0.037422296
00000000: 988b 0f3d 7ff2 bbbc 6b5b 25bc 7e6c 313d
00000010: 5acd 2b3d 68b7 253d 23ec 33bd 56e5 90bc
00000020: 2615 b8bc 701e 70bb 980d 2e3d 7e80 993c
00000030: b5a4 8cbc 4583 58bc 9c43 8f3c 67a5 a9bc
00000040: 56c8 143d 30d2 30ba 774a 33bd f131 503d
00000050: 8657 ca3c 62de 38bb b58d 89bc d049 ebbc
00000060: 5920 9f3a a6bd f93b 20f7 26bd d842 463c
00000070: a83a 1c3c 80ee 3ebc 6c02 73bb 0ddd 403b
00000080: 78d8 2a3d e958 3c3c ecaa 2a3d 1079 93bc
00000090: 9a94 bdbc f014 2dbc 7828 58bc 0af1 d13c
000000a0: 344c efbc 7a55 843c ad5c dabc b4f2 c23c
000000b0: 3228 dbbc 914a 29bd 524d 29bd 8b60 3d3d
000000c0: 001e f8b9 cfef a3bc d6e6 3abd 2ac8 4ebd
000000d0: 7317 873d 8d65 183c 0a8f a63c 0c6c b63c
000000e0: c80c 81bc 6693 f13c 741c a93c b45c 67bc
000000f0: 357e 2f3d fe60 053d 57ae 90bc 41cb 63bc
00000100: 48e4 2abd d512 08bd 3364 28bd a90d 02bd
00000110: efdd 863c 0e5e 9b3b 38e3 013d 305b 5b3c
00000120: cd4d 0c3c 5bf6 31bd 5696 29bd aeb1 0dbd
00000130: 4f52 67bd 3b1b 2c3d be3d be3b 18e2 dc3c
00000140: 1233 483c 6658 cf3c b4ae 21bc dc53 a0bc
00000150: c5da 4cbc 65a3 b2bc c298 6f3d 2321 673c
00000160: 183f 3cbc 1041 173d e6d3 cdbb 55b3 39bc
00000170: 640f a7bc d7cb ed3b db2f bebc f1ed 1fbd
00000180: fa3e 383d 864b 913d 8b11 0b3d 7200 22bd
00000190: 61ff d33c f6b8 453d 78db c13b 5226 bb3b
000001a0: 9c6f 253d b8e6 cd3c 8348 823d 0645 5abc
000001b0: 0c55 f9bc 4f7f 263d 084a 493d 7028 77bc
000001c0: 2ecd 3c3b 4ef2 813c 2a21 483c fb66 a23d
000001d0: dba4 813c 0a9d 30bc 5e00 563d 04f1 af3c
000001e0: 4ba7 303d d050 773c 1c7e b5bb 7af6 5d3d
000001f0: 00b9 5dbd 3ca0 17bb 56f1 8b3c edba 97bc
00000200: b0f5 d0bc 80ff 42bd 2856 c2ba f4c2 b63c
00000210: 6ebf 26bd 714a 7f3d 5d8d ecbc 89bb 883d
00000220: 9d6c 7cbc 1bc9 6ebc 7a7c d9bc 0d5e 85bd
00000230: f4b7 92bc 4844 dd3a a5e1 3abd b8f2 033d
00000240: d092 1f3b 238d 1ebd d950 37bd ff0f 33bd
00000250: 7287 35bc 74ea 8dbd 4c13 c5bc e4af 9c3c
00000260: e4bf d43b c667 ed3c b274 233c 824e d23c
00000270: 90e5 7e3a 6c2c 96bc 1aad bebb 62ee 103c
00000280: 1493 1d3d e0cb a13c 2008 dfbb 607f 19ba
00000290: 9368 0b3d 3a4c 5a3c c1ec 4e3d 5461 8a3d
000002a0: 5458 663d 80f3 493c 78fd c33c ccc1 b9bc
000002b0: 3006 8bbb 8013 f5bc 479c 94bd 408f ec39
000002c0: 07b5 f63c 9c16 fd3c d3ab 983d 8c15 f3bb
000002d0: 320f 863c cd54 903d 20a1 25bd db7b 24bd
000002e0: efe3 adbc 5e65 e2bc 9208 93bb e09c 163d
000002f0: 5454 afbc dcc6 ff3c e43c e83c 05c4 02bd
00000300: 8c7d 903c fb39 433c fb93 20bd 84a8 a63c
00000310: 3f86 2f3d bd29 013d 71ad 863c d59a 2dbd
00000320: 60ec 283b 7682 8ebc 2edd c73b 5640 36bd
00000330: 8266 3a3d eb21 543d 080c f03c 33af 0f3d
00000340: 7dca 23bd 6653 ac3c 7e80 b53c 6612 9fbc
00000350: 503d f03c b889 1b3d 31af fd3c 3a55 0dbd
00000360: c9d9 1bbd 0e9a 8b3d 3b73 2f3d eaf8 ed3c
00000370: 5490 9ebc 41af a33d 7d42 94bc 18d6 ab3a
00000380: 5d76 513c 8aaf 583d eda2 f03c 28de 983c
00000390: c03a 8d3c a0e6 85bc b0bc 413d 9c57 8b3c
000003a0: 5c2b 8ebb 583c 9fbc 3457 333d e474 a2bc
000003b0: 1302 133d 40fa d73c 1331 743d f4e8 fdbc
000003c0: b64f 35bd 38af 1d3d 6662 ff3c 277e e13b
000003d0: 4024 9bba ef44 c43c 1734 11bd adae f63c
000003e0: 2638 21bd 5137 f43c e04e 933d 51a4 9dbc
000003f0: bc4d 263d 150e 093d 085e ba3b 1f48 193d

conv2.bias f4 [7]
-0.019988343 -0.019986529 0.019554691 0.01999215 0.012368742 -0.01998305 -0.019994566
00000000: 98be a3bc caba a3bc 2931 a03c 94c6 a33c
00000010: 44a6 4a3c 7eb3 a3bc a5cb a3bc

conv2.lin.weight f4 [7, 16]
0.22257787 0.26363692 -0.06710519 -0.29458547 -0.12620081 0.3838747 0.35955033 -0.32651344
-0.08455016 0.19791493 -0.35092112 0.2291094 0.23336466 0.15919332 0.010107096 -0.2897811
-0.24930851 0.027158942 0.4876882 -0.3377073 -0.111422524 -0.3655656 -0.07792186 -0.08523421
0.43787023 0.13549277 0.12025067 -0.4712246 -0.34841755 -0.22098453 -0.35260758 -0.06379184
0.17643325 0.37039018 0.05775132 -0.17882307 -0.10445747 0.1386062 -0.104246974 -0.17214425
-0.06787974 -0.13458553 0.46510285 -0.28809234 -0.314108 -0.19779894 0.2815627 0.3000352
0.1342099 0.114858486 -0.28005266 0.44787693 0.38193846 -0.41945013 0.123044424 0.077946246
0.4372868 0.04172286 -0.12589209 0.14894122 -0.039466314 0.17845537 -0.35406822 0.3095144
-0.3591946 0.07475969 -0.21469034 0.06081882 -0.38999605 0.077479534 -0.31279773 -0.30162996
-0.35550728 0.38546833 -0.0072167898 -0.44566154 0.061029553 0.1887205 -0.10759029 -0.012372272
-0.07778572 -0.4425931 -0.10266256 0.41470504 -0.32812336 -0.22695541 -0.25766233 -0.34779805
0.2290149 -0.1623813 -0.16275291 -0.09130755 -0.40848845 0.12300317 -0.1574535 0.064424574
-0.24560882 0.3058032 -0.16482976 0.3178432 -0.48013335 -0.20975454 0.21827322 0.16981411
-0.40436742 -0.4551882 -0.41142222 0.2657627 0.36747873 0.36624846 -0.27572754 0.12789464
00000000: 74eb 633e 6bfb 863e 726e 89bd e8d3 96be
00000010: c93a 01be 3a8b c43e fb16 b83e c52c a7be
00000020: a228 adbd 36aa 4a3e efab b3be a89b 6a3e
00000030: 25f7 6e3e 9303 233e 3c98 253c 305e 94be
00000040: bb4a 7fbe 6e7c de3c 45b2 f93e f9e7 acbe
00000050: 7e31 e4bd 6a2b bbbe 7f95 9fbd 468f aebd
00000060: 8730 e03e 9ebe 0a3e fc45 f63d 5a44 f1be
00000070: c963 b2be c549 62be fb88 b4be 4ca5 82bd
00000080: ebaa 343e c8a3 bd3e a68c 6c3d 651d 37be
00000090: cced d5bd c9ee 0d3e 707f d5bd 9546 30be
000000a0: 8804 8bbd cad0 09be f621 ee3e d780 93be
000000b0: c4d2 a0be ce8b 4abe fc28 903e 379e 993e
000000c0: 526e 093e ed3a eb3d 1063 8fbe 2050 e53e
000000d0: 708d c33e 2bc2 d6be b7fe fb3d 48a2 9f3d
000000e0: 0ee4 df3e 97e5 2a3d dbe9 00be 0c84 183e
000000f0: 6ea7 21bd 01bd 363e 6e48 b5be ac78 9e3e
00000100: 5be8 b7be 9c1b 993d c9d7 5bbe 281d 793d
00000110: 90ad c7be 97ad 9e3d 0627 a0be 3e6f 9abe
00000120: 0d05 b6be 1b5c c53e d27a ecbb c02d e4be
00000130: 20fa 793d f23f 413e 4c58 dcbd 12b5 4abc
00000140: 1f4e 9fbd 909b e2be c040 d2bd 3854 d43e
00000150: c9ff a7be 0067 68be 51ec 83be 9612 b2be
00000160: e282 6a3e 4947 26be b3a8 26be 74ff babd
00000170: 6625 d1be 16e9 fb3d 7e3b 21be 08f1 833d
00000180: e180 7bbe 3d92 9c3e 22c9 28be 58bc a23e
00000190: 0ad4 f5be e5c9 56be 0483 5f3e c0e3 2d3e
000001a0: 3f09 cfbe 6e0e e9be efa5 d2be 0c12 883e
000001b0: 2c26 bc3e eb84 bb3e 292c 8dbe d0f6 023e
