output/best_GCN_model_cora_SAGE.pkl (torch, 187442 bytes, 6 tensors)

conv1.lin_l.weight f4 [16, 1433]
0	0x3c92481c	0.01785665
1	0xbaf21618	-0.0018469719
2	0x3cdee8d9	0.02721064
3	0x3bc0f9e1	0.005889163
4	0x3b92d252	0.0044806385
5	0x3c986540	0.018602967
6	0x3cac0bf0	0.021001786
7	0xbb3eb49c	-0.002909935
8	0xbbcdac9a	-0.006276679
9	0xbb22c4f9	-0.0024836643
10	0x3ca3a388	0.019975439
11	0x3c95f8b0	0.01830706
12	0x3c099b27	0.008398808
13	0xbb00835c	-0.0019609546
14	0xbb535154	-0.003224452
15	0x3c3e7f2d	0.011627001
16	0x3c2dc662	0.01060638
17	0x3c8e5d56	0.01737849
18	0x3b7e6a83	0.003882081
19	0xbbddd59b	-0.0067698485
20	0x3b73010d	0.0037079484
21	0x3bb43723	0.005499737
22	0x3b2c3b40	0.0026280433
23	0xbc51aac4	-0.012797061
24	0xb98b0f00	-0.00026523322
25	0x3c64bc16	0.013960859
26	0x3bc9306f	0.006139807
27	0xbce50f26	-0.027961325
28	0xbbf2949d	-0.00740297
29	0x3caef793	0.021358287
30	0xba398bd0	-0.00070780236
31	0xbbda486e	-0.0066614663
32	0x3b2f8d6c	0.0026787175
33	0x3c7d5906	0.015463119
34	0x3ba7646e	0.0051084077
35	0xbc062810	-0.008188263
36	0x3cbe7014	0.023246802
37	0xbb29280c	-0.0025811223
38	0xbb62303c	-0.0034513613
39	0x3c3bc127	0.011459625
40	0xbb95985a	-0.004565281
41	0x3c08e6bb	0.008355792
42	0xbb567e90	-0.0032729246
43	0xba8fe840	-0.001097925
44	0xbbc9f982	-0.006163777
45	0xbbe9d272	-0.0071356827
46	0x3b836369	0.0040096533
47	0x3bc9acd2	0.006154635
48	0x3c308799	0.0107745165
49	0x3cb81365	0.022470186
50	0xbb117a02	-0.0022197966
51	0x3cfd302e	0.030906763
52	0xbbb93e30	-0.0056531653
53	0x3a183990	0.00058069173
54	0xbd0b3924	-0.03399004
55	0xbacf2536	-0.0015803936
56	0xb91e43c0	-0.00015093293
57	0xbb0616e4	-0.0020460421
58	0x3c836634	0.016039945
59	0x3c95c3be	0.018281814
60	0xbcbf4e2e	-0.023352709
61	0xbc6145ec	-0.013749581
62	0xbcda1492	-0.026621137
63	0xbcca5822	-0.024700228
64	0xbc0d686c	-0.008630853
65	0x3cbda585	0.023150215
66	0x3ca7cd14	0.020483531
67	0x3d10b38a	0.03532747
68	0x3b24217a	0.0025044368
69	0x3c585c8f	0.013205661
70	0x3c84b50c	0.016199611
71	0xbc0d6528	-0.008630075
72	0x3ba79530	0.00511422
73	0x3d07cdce	0.033155255
74	0xbc09a77e	-0.00840175
75	0x3c233c0b	0.009963046
76	0x3b9fdcec	0.004878631
77	0xbb08ce00	-0.0020874739
78	0x3bf460d0	0.00745783
79	0x3bdd1a80	0.006747544
80	0x3b599760	0.0033201799
81	0x3b29200a	0.002580645
82	0xbb7bb6cc	-0.0038408516
83	0x3c01ebf2	0.007929789
84	0xbbd4d862	-0.0064955214
85	0x3b75a483	0.003748209
86	0x3b8effbd	0.0043639825
87	0x3b01f9c0	0.00198327
88	0x3cf7e2f6	0.03025959
89	0x3cd622de	0.026139673
90	0x3cc88d24	0.024481364
91	0xb94deb00	-0.00019637868
92	0x3cba0d78	0.0227115
93	0xbd278229	-0.040895615
94	0xbcc794a4	-0.02436287
95	0x38ab4400	8.1665814e-05
96	0x3b00b26c	0.0019637598
97	0x3c88eb28	0.016713694
98	0xbcb4bfa0	-0.02206403
99	0xbb9e4acc	-0.004830694
100	0xba9b88c0	-0.0011866316
101	0x3c27cddc	0.010241952
102	0x3cd2cf67	0.025733663
103	0x3d1e6f94	0.038680628
104	0x3a89e2cc	0.0010519861
105	0xbb2a2e6a	-0.0025967606
106	0xbb8f38d7	-0.0043707895
107	0x3c50a8bb	0.012735541
108	0x3bc2ebf0	0.005948536
109	0x3b08b3a4	0.0020859027
110	0x3b790d1c	0.0038002199
111	0x39fec060	0.00048589986
112	0x3c77f5a9	0.015134254
113	0x3a85f368	0.0010219635
114	0xbbd2f4b9	-0.0064378646
115	0x3ca57833	0.020198917
116	0x3c8a8520	0.016909182
117	0x3cb4fac7	0.022092236
118	0x3c5d70a2	0.013515623
119	0xbc5df269	-0.013546565
120	0x3a2edd60	0.00066705607
121	0xbcc6f421	-0.024286332
122	0xbcafabe7	-0.021444274
123	0x3afdfa28	0.001937692
124	0x3c45aa8d	0.012064588
125	0xbc3b115f	-0.011417716
126	0x3bb8364c	0.005621707
127	0x3c9980fb	0.01873826
128	0x3c4f5a24	0.012655769
129	0x3b0bdae0	0.0021340176
130	0x3d318d52	0.043347664
131	0x3bb819b8	0.0056183003
132	0x3d2725a0	0.040807366
133	0x3b844f8a	0.004037802
134	0xbc987704	-0.018611439
135	0x3b72d324	0.003705212
136	0xbb5998b8	-0.00332026
137	0xbbae558c	-0.0053202566
138	0xbb67a1b8	-0.0035344195
139	0x3ba8cc88	0.005151335
140	0xbabebf90	-0.001455294
141	0x3a754868	0.00093567977
142	0x3cfb0fec	0.03064724
143	0x3c79b27c	0.015240308
144	0x3bcaedd8	0.006192904
145	0x3c067ff3	0.008209216
146	0x3a31a42c	0.00067764777
147	0xbba8a64f	-0.0051467787
148	0x3c2dd624	0.010610137
149	0xbb2e0fec	-0.0026559783
150	0xbb1da178	-0.0024052542
151	0x3bd99fdf	0.0066413726
152	0xbbc3c220	-0.0059740692
153	0xbb3e6b78	-0.0029055756
154	0x3becfb8a	0.007232134
155	0x3b26aea4	0.0025433684
156	0x3bbcdce2	0.005763636
157	0x3cf7f120	0.030266345
158	0x382ba900	4.092697e-05
159	0xbbb3c8b2	-0.005486571
160	0xba1e94e0	-0.0006049406
161	0x3ca74486	0.020418417
162	0x3cd7ef24	0.026359148
163	0x3c667fd1	0.01406856
164	0x3ce3e2cc	0.027818106
165	0x3b34dcac	0.002759735
166	0x3b02d1e4	0.001996153
167	0x3b184e74	0.002324012
168	0x3b0f5c58	0.002187511
169	0x3cb7a450	0.022417217
170	0x3bbed986	0.0058242707
171	0x3c5d04ff	0.013489961
172	0x3c80f98e	0.015743997
173	0x3c76130a	0.015019188
174	0x3b493c67	0.0030706169
175	0xba98d5ec	-0.0011660433
176	0x3c1c7b72	0.009550916
177	0x3cb3e144	0.021958001
178	0x3bcb88e2	0.006211386
179	0x3ab368a4	0.0013687802
180	0x3a760010	0.00093841646
181	0xbb8383ca	-0.004013513
182	0x3c831181	0.015999557
183	0xbbcc078c	-0.0062264856
184	0xbadd9588	-0.0016905526
185	0x3c0dacee	0.008647187
186	0xbc50e366	-0.0127495285
187	0xbc30f84f	-0.010801389
188	0xbc218016	-0.009857198
189	0xbb512fcc	-0.0031919358
190	0x3bd1e6e6	0.006405699
191	0xbca9c66f	-0.020724503
192	0x3ca749ad	0.020420874
193	0x39cd0980	0.00039107725
194	0xbba408e0	-0.005005941
195	0x3afc22a8	0.0019236403
196	0x3c143db9	0.009047919
197	0xbba3fefe	-0.0050047627
198	0x3c8cad13	0.017172372
199	0x3bcbd904	0.0062209386
200	0xbb11a990	-0.0022226311
201	0x3c67870f	0.014131322
202	0xbbfce346	-0.007717523
203	0x3c203688	0.009778626
204	0x3c3125f9	0.010812276
205	0xbc94d82e	-0.018169489
206	0x3c0d6f4e	0.008632494
207	0xbb14119e	-0.0022593508
208	0xbae1a880	-0.0017216355
209	0x3bde23ab	0.0067791543
210	0xb8d8cc00	-0.000103376806
211	0xbcaebe1c	-0.021330886
212	0x3c945bd7	0.018110199
213	0xbb1b2484	-0.0023672888
214	0x3d29db5f	0.041468974
215	0x3b19a02a	0.0023441412
216	0x3c8febea	0.017568547
217	0x3acbd490	0.001555102
218	0x3c53c208	0.012924679
219	0x3bab7a06	0.005233052
220	0xbbd1af5c	-0.0063990783
221	0x3bd1f38e	0.006407208
222	0x3ceb14f1	0.02869651
223	0x3ba1d349	0.004938517
224	0x3c539926	0.012914931
225	0x3c379f48	0.011207409
226	0x3cffb896	0.031215947
227	0xbadef248	-0.0017009461
228	0x3b9d2d3e	0.004796653
229	0x3bd95900	0.006632924
230	0xbabd8c78	-0.0014461419
231	0x3cbf3833	0.023342228
232	0xbbbed480	-0.005823672
233	0xbbcb03fc	-0.0061955433
234	0xbad87760	-0.0016515069
235	0x3c31ae17	0.010844729
236	0xbb9b968e	-0.004748172
237	0xbbdb716e	-0.0066968715
238	0xbae33878	-0.0017335555
239	0x3cb7c1b0	0.022431225
240	0x3bdd669c	0.0067566168
241	0xbbd06e48	-0.006360803
242	0xbc802c98	-0.015646264
243	0xbb40a940	-0.0029397756
244	0xbaf4254a	-0.0018626836
245	0xbb8ea416	-0.0043530567
246	0x3ae228e0	0.0017254613
247	0x3c114808	0.008867271
248	0xbc5c81ce	-0.013458682
249	0xbb91c82c	-0.004448911
250	0x3bce5508	0.0062967576
251	0xbc549b35	-0.012976457
252	0x3c9bc274	0.01901362
253	0x3cf90def	0.030402152
254	0x38cbc900	9.7172335e-05
255	0xbb88b084	-0.004171433

conv1.lin_l.bias f4 [16]
0	0x3d2431a6	0.04008641
1	0xbbbf2834	-0.00583365
2	0x3b6ff6a4	0.0036615515
3	0x3d0a7434	0.033802226
4	0xbd074b39	-0.033030722
5	0x3ce391ac	0.027779423
6	0xbcc4a668	-0.02400513
7	0xbc810356	-0.015748661
8	0x3cd63818	0.026149794
9	0x3cc3e894	0.023914613
10	0xbce51ef0	-0.027968854
11	0xbc8ae99d	-0.016957099
12	0xbada4a5c	-0.0016654241
13	0x3d0c84ab	0.03430621
14	0x3b5f4c0c	0.0034072427
15	0x3badad21	0.0053001796

conv1.lin_r.weight f4 [16, 1433]
0	0xbc31cf99	-0.010852718
1	0xbb8a4ac0	-0.0042203367
2	0x3cd6f782	0.026241068
3	0xbbb5f944	-0.0055533964
4	0xbca7b0b8	-0.020470008
5	0xbabfda78	-0.0014637252
6	0x3bdc337a	0.0067200037
7	0xbb867f96	-0.004104565
8	0xbb0f8bae	-0.0021903324
9	0x3bd7222b	0.0065653524
10	0x3b84bf98	0.00405116
11	0x3bcb0086	0.0061951308
12	0x3d0f10d6	0.034928165
13	0x3b92f21e	0.004484429
14	0x3b1b52f8	0.0023700576
15	0x3c94980c	0.018138908
16	0x3c6fcb0e	0.014635814
17	0xbbc0eed5	-0.005887846
18	0xbb8ec342	-0.0043567726
19	0x3ca48355	0.020082155
20	0xba02aa70	-0.00049845036
21	0x3b23583c	0.0024924418
22	0xbc2aac8d	-0.010417116
23	0x3d1ef37d	0.038806427
24	0x3b2eda02	0.0026680236
25	0x3aa52bd0	0.0012601558
26	0x3c51d38e	0.012806786
27	0x3bc627f5	0.0060472437
28	0xbc63c6ba	-0.013902361
29	0x3ceb9520	0.028757632
30	0xbc968b3c	-0.018376939
31	0x3a466420	0.00075680204
32	0x3c902859	0.017597364
33	0xbcc501ea	-0.024048764
34	0x3cd88df0	0.026434869
35	0xbb489e70	-0.0030612014
36	0x3ce670a4	0.028129883
37	0xbb4b4390	-0.0031015612
38	0x3c15582a	0.009115258
39	0xbc01bff4	-0.0079193
40	0x3b019ab4	0.0019776048
41	0x3be5a56b	0.0070082447
42	0x3cc7b10a	0.024376411
43	0xbc8bae9c	-0.017051034
44	0x3bcb44a6	0.006203252
45	0x3cddb748	0.027064934
46	0x39608220	0.0002141078
47	0xbc942e1e	-0.018088397
48	0x3d1483d4	0.036258534
49	0x3ba01f0b	0.004886513
50	0xbc2aa05e	-0.010414211
51	0x3b270648	0.0025485922
52	0x3d1be9c4	0.038064733
53	0x3bf182a7	0.0073703113
54	0xbd22a8f2	-0.0397119
55	0x39b048c0	0.0003362354
56	0x3c7b9a7a	0.015356654
57	0x3d398c88	0.045300037
58	0x391d2d80	0.00014989637
59	0xbc19ff37	-0.009399227
60	0xbc0b837c	-0.008515235
61	0x388ecf80	6.8097375e-05
62	0xbc6638d2	-0.014051633
63	0xbbe3b18e	-0.0069486564
64	0xbc86e92c	-0.016468607
65	0x3d3a1557	0.045430508
66	0x3cbd66e4	0.023120351
67	0x3d0ad04b	0.03389005
68	0x3c42e200	0.011894703
69	0x3cf2468e	0.029574659
70	0xba70ab78	-0.0009180824
71	0xb9c5f0c0	-0.0003775414
72	0xbc2c251a	-0.010506893
73	0x3b5698d8	0.003274491
74	0xbc4a83fc	-0.012360569
75	0x3b1407c0	0.0022587627
76	0x3c936f78	0.017997488
77	0x3c84a012	0.016189609
78	0x3be4e680	0.0069854856
79	0x3a07aba0	0.00051754154
80	0xba652fa0	-0.00087427534
81	0xbc801eb8	-0.015639648
82	0x3cca077a	0.024661768
83	0x3a86fadb	0.001029815
84	0xbc9bbd4e	-0.019011166
85	0xbade2a38	-0.0016949838
86	0xbab580c8	-0.0013847584
87	0x3b64c788	0.003490897
88	0x3d2c4a17	0.042062845
89	0x3d0e5f32	0.034758754
90	0x3c96a568	0.018389419
91	0x3c6c2a05	0.014414315
92	0x3d32ac1d	0.04362117
93	0xbcc4cf16	-0.024024528
94	0xbcd913ff	-0.026498793
95	0x3b9cdb46	0.0047868816
96	0xbc2d1206	-0.010563379
97	0x3aa4ec60	0.0012582652
98	0xbc8d261d	-0.017230088
99	0xba4d2dc0	-0.00078269467
100	0x3bd4f4b0	0.0064988956
101	0x3cfe83cf	0.03106871
102	0x3d0be638	0.0341551
103	0x3c0fc6eb	0.008775453
104	0xbcfe3190	-0.031029493
105	0x3c2e281f	0.010629683
106	0xbc20f689	-0.009824404
107	0x3b21d10b	0.002469125
108	0x3b75f524	0.0037530148
109	0xbbef74f5	-0.0073076435
110	0xbbb62db1	-0.005559646
111	0xbcfeaa4b	-0.031087061
112	0xbc003146	-0.007824248
113	0x3c3d81aa	0.011566559
114	0x3bc32164	0.005954908
115	0xbd0e5e02	-0.03475762
116	0x3ca4676e	0.02006885
117	0x3c2ff9fe	0.010740755
118	0x3cf3a3e8	0.029741243
119	0xbcb4d85c	-0.022075824
120	0xbc23406c	-0.00996409
121	0xbc9cb4a6	-0.019129109
122	0xbcb654b2	-0.022257183
123	0xbbc0e5a5	-0.0058867508
124	0x3c39d524	0.011342321
125	0x3b8a6783	0.0042237653
126	0x3d2110a4	0.03932251
127	0x3b0eeb74	0.0021807821
128	0x3c3edde7	0.011649585
129	0xbb3cb7e8	-0.002879614
130	0x3d0308d8	0.031990856
131	0x3bfba1f8	0.0076792203
132	0xbbd99eb0	-0.0066412315
133	0x39757d00	0.00023411587
134	0xbcd449d4	-0.02591411
135	0x3d0c04df	0.034184333
136	0x3d2f546e	0.042805128
137	0xbc4813b2	-0.012211727
138	0x3c0c0f63	0.00854859
139	0x3c510102	0.012756588
140	0x3c5c971e	0.0134637635
141	0x39cfdb40	0.0003964547
142	0x3b22ce60	0.0024842247
143	0x3cdb8808	0.026798263
144	0x3cb1ca99	0.021703051
145	0x3c523c1c	0.012831714
146	0x3bd30dc7	0.0064408514
147	0xbd02d391	-0.031940047
148	0x3cd0ff60	0.025512397
149	0x3ada7694	0.0016667419
150	0xbce42c50	-0.027853161
151	0x3be28039	0.006912258
152	0x3a2e2fd0	0.0006644698
153	0x3b00ab10	0.0019633211
154	0x3c7c0003	0.015380862
155	0x3cf55473	0.029947495
156	0xbb9f05c0	-0.0048529804
157	0x3b25b8df	0.0025287194
158	0x3b20909a	0.0024500252
159	0xbb7991a8	-0.0038081203
160	0xbcc5be52	-0.024138603
161	0x3cbf303e	0.023338433
162	0x3d35c8c0	0.044380903
163	0x3b970632	0.004608893
164	0x3a94f6dc	0.0011365074
165	0xbd076b6e	-0.033061437
166	0x3cf89ff0	0.030349702
167	0x3d1eaebf	0.03874087
168	0xbc5fb12e	-0.013653083
169	0xbb42ed68	-0.0029743556
170	0x3c67d35d	0.014149514
171	0x397d1da0	0.00024138996
172	0x3cb8d8f6	0.022564393
173	0x397806c0	0.00023653638
174	0x3c9a5283	0.018838173
175	0xbbc95492	-0.006144115
176	0x3c822fa6	0.015891861
177	0x3d2c9058	0.042129844
178	0x3d0c3be7	0.034236815
179	0x3cb2c0b2	0.0218204
180	0xbb78ade4	-0.0037945444
181	0x3b347e70	0.0027541183
182	0x3d391312	0.045184202
183	0x3c80f148	0.015740052
184	0x3b82dfb4	0.0039939526
185	0xbb188caa	-0.0023277202
186	0x3c7e0a0f	0.015505328
187	0xbd050dc4	-0.03248383
188	0xbc8b1e67	-0.01698227
189	0xbc8159fa	-0.015789974
190	0x3a64b940	0.0008725114
191	0x3bceef2d	0.006315133
192	0xba018cc0	-0.0004941933
193	0x3bc96dd1	0.0061471243
194	0xb9cdbc9c	-0.00039241172
195	0xbd1adf8c	-0.037810847
196	0x3ca9e8de	0.020740923
197	0xb9b9be70	-0.00035427837
198	0x3b394e48	0.002827542
199	0x3b523176	0.0032072938
200	0xbbd4be64	-0.006492423
201	0xbbb8ce90	-0.0056398585
202	0x3c208356	0.009796938
203	0x3c5c9274	0.0134626515
204	0x3cdb8d1f	0.02680069
205	0x3b8a8958	0.0042277984
206	0x3bfbf0a4	0.0076885987
207	0x3bd5392c	0.0065070596
208	0xbb92707c	-0.0044689756
209	0xbbb2ba5c	-0.0054543447
210	0xbbc09504	-0.005877139
211	0xbcbb692c	-0.022877298
212	0x3ca2e1c4	0.019883044
213	0x3b2ddf48	0.002653079
214	0x3c324c53	0.010882455
215	0xbbd0e91e	-0.006375446
216	0x3cb90aa9	0.022588091
217	0x3cdd8686	0.027041685
218	0x3cf5fd26	0.030027937
219	0x3b80d808	0.003932003
220	0x3b897778	0.00419515
221	0xbbc82490	-0.006107874
222	0xbb64e7c2	-0.0034928177
223	0xbb66f5f4	-0.0035241814
224	0x3bc59609	0.0060298485
225	0x3d1a47a5	0.03766598
226	0x3d040a74	0.03223653
227	0xbac91b14	-0.0015343153
228	0xbbd62ad4	-0.006535867
229	0xbc982379	-0.018571602
230	0xbcd3ed7c	-0.025870077
231	0x3c4f8469	0.012665846
232	0x3be10696	0.00686724
233	0xbc97cc68	-0.018530086
234	0xbbe583ea	-0.007004251
235	0x3b08e552	0.0020888639
236	0x3b682ee8	0.003542835
237	0xbb9b38a6	-0.0047369776
238	0x3d0ba804	0.03409578
239	0x3bc60cf8	0.0060440265
240	0x3c7d635e	0.0154655855
241	0x3cd02bca	0.025411505
242	0xbcf2ae41	-0.029624106
243	0x3ae0f4e0	0.0017162822
244	0x3cb76c85	0.022390613
245	0xbcd72eee	-0.026267495
246	0xbb0ac9a0	-0.0021177307
247	0xbd366ccb	-0.044537347
248	0xbb27f91c	-0.0025630658
249	0xbafb32aa	-0.0019164879
250	0x3c462e8c	0.012096059
251	0xbb6c2d08	-0.0036037583
252	0x3be22e14	0.0069024656
253	0x3d138eff	0.036025044
254	0xbc1834e6	-0.009289956
255	0xbc14f0ec	-0.009090643

conv2.lin_l.weight f4 [7, 16]
0	0xbe4e2370	-0.20130706
1	0x3c6cec2c	0.014460605
2	0xbd86328b	-0.06552609
3	0x3ce84d1e	0.028357085
4	0x3e005faa	0.12536493
5	0xbdb079f2	-0.08617009
6	0x3e1af51f	0.15132569
7	0x3ba2820a	0.0049593495
8	0xbd463dac	-0.04839866
9	0x3d094df2	0.0335216
10	0x3d01b67c	0.03166817
11	0x3e6840c4	0.22680956
12	0x3c9b6cce	0.01897278
13	0xbb93209a	-0.0044899704
14	0x3e469096	0.19391093
15	0xbd593aad	-0.053034473
16	0xbe729297	-0.23688732
17	0x3e699730	0.2281158
18	0x3dfc4e56	0.12319629
19	0xbcc0c6d2	-0.023532305
20	0x3b7ebd94	0.0038870322
21	0x3e3adf7a	0.18249312
22	0xbd8f02ce	-0.06982957
23	0x3e094a61	0.1340728
24	0x3d8c6225	0.06854657
25	0x3d0aba66	0.03386917
26	0x3d3c2c4c	0.045940682
27	0xbd896fac	-0.06710753
28	0xbc83797c	-0.01604914
29	0xbe358b96	-0.17729029
30	0x3d3f1128	0.04664722
31	0xbd687350	-0.056750596
32	0x3e52b6ab	0.20577495
33	0xbe00bc3f	-0.1257181
34	0xbe1724c4	-0.14760119
35	0xbde46e27	-0.111538224
36	0x3e1e8084	0.15478712
37	0xbe30085c	-0.17190689
38	0x3e3d0d5d	0.18462129
39	0x3db0d693	0.08634677
40	0x3d7d2907	0.061806705
41	0xbdda7239	-0.106663175
42	0x3e5ac4ce	0.21364138
43	0x3d4e8926	0.050423764
44	0xbe3af369	-0.18256916
45	0x3cecb33b	0.028894057
46	0x3d1bb584	0.038014904
47	0xbe41e286	-0.18934068
48	0xbd9b29c8	-0.075763285
49	0xbe0bdc2c	-0.13658208
50	0xbe4c495f	-0.19949864
51	0xbe52d8ca	-0.20590511
52	0x3e27d7c0	0.16390896
53	0xbe6ab694	-0.2292121
54	0x3d97ff98	0.074217975
55	0xbcdc19b8	-0.026867732
56	0xbe4057e3	-0.18783526
57	0x3dba82b5	0.09106962
58	0x3e009220	0.12555742
59	0xbde2e5de	-0.11079
60	0xbe316a60	-0.17325735
61	0x3e53307f	0.20623969
62	0x3dc1af89	0.09457309
63	0x3e5af2a4	0.21381623
64	0x3d4a3b5a	0.04937301
65	0x3e451306	0.19245538
66	0x3d3b7f5b	0.045775753
67	0x3d2ca1ed	0.042146612
68	0x3e10660d	0.1410143
69	0x3de6e20b	0.11273583
70	0x3e07e1bb	0.13269703
71	0x3ce52916	0.027973693
72	0x3e1f3f4e	0.15551493
73	0x3e24453b	0.16042034
74	0x3b9130b6	0.0044308556
75	0x3df9fd52	0.1220652
76	0xbc1247cf	-0.008928253
77	0x3d1b8540	0.037968874
78	0x3c3a0025	0.0113525735
79	0xbe27be7a	-0.16381255
80	0xbe12c13d	-0.14331527
81	0x3e66e817	0.22549473
82	0xbb8606f6	-0.0040901853
83	0xbe83cf67	-0.25744173
84	0x3e19f88e	0.15036222
85	0x386e9f00	5.6891702e-05
86	0x3def25b4	0.11677113
87	0x3d804ddb	0.0626485
88	0x3e0132bc	0.1261701
89	0xbe1821cc	-0.14856642
90	0x3d0eb657	0.03484186
91	0x3e533331	0.20624997
92	0x3d30c301	0.04315472
93	0x3d74121e	0.05958759
94	0x3e3f5e1d	0.18688245
95	0x3da1ff1b	0.07909986
96	0x3e5c2a63	0.21500544
97	0x3cb0fee1	0.02160591
98	0xbe2cd7c7	-0.16879188
99	0xbdfe3832	-0.12413062
100	0x3dacb5ab	0.08433088
101	0xbd802449	-0.06256921
102	0xbccf76ac	-0.025325142
103	0x3d371083	0.04469348
104	0x3e0a50ee	0.13507435
105	0xbe505ebf	-0.20348643
106	0x3dee2a30	0.116291404
107	0xbc47fe90	-0.0122066885
108	0xbdff2926	-0.1245902
109	0xbdd91349	-0.105993815
110	0xbd814c06	-0.063133284
111	0xbe07cbae	-0.13261291

conv2.lin_l.bias f4 [7]
0	0xbde761dd	-0.11297963
1	0x3d80e526	0.062937066
2	0x3ba05cec	0.0048938897
3	0x3d9c02bd	0.0761771
4	0xbd224cb4	-0.03962393
5	0xbcf55092	-0.029945645
6	0x3bf4b686	0.0074680476

conv2.lin_r.weight f4 [7, 16]
0	0xbe6eca76	-0.2331942
1	0x3cc0a3ae	0.023515549
2	0xbe3c83df	-0.1840968
3	0x3e861afe	0.26192468
4	0xbe3ba256	-0.18323645
5	0xbe54dc30	-0.2078712
6	0x3da1d54b	0.079020105
7	0x3e5768ea	0.21036115
8	0xbdd3253e	-0.10309838
9	0x3e631d10	0.22179055
10	0x3d36587b	0.044517975
11	0xbe56fc11	-0.20994593
12	0x3d644717	0.05573186
13	0xbe1b7207	-0.15180217
14	0xbe5223eb	-0.20521514
15	0x3e5457f0	0.2073667
16	0x3caf8ec6	0.021430384
17	0xbe698584	-0.22804838
18	0x3e37e2d4	0.17957622
19	0xbe7f1488	-0.24910176
20	0x3d4cf604	0.050039306
21	0xbd48e24b	-0.049043935
22	0xbe5606f2	-0.20901087
23	0x3dff904b	0.124786936
24	0xbd34f770	-0.044181287
25	0xbe5763ac	-0.21034116
26	0x3dd9bea8	0.10632068
27	0xbdd343ae	-0.10315643
28	0xbc8910e4	-0.016731687
29	0x3e1b492c	0.15164632
30	0xbe27324c	-0.1632778
31	0xbe21b86c	-0.15793008
32	0xbe0df29a	-0.13862076
33	0xbd6075e7	-0.05479994
34	0xbd0406d6	-0.03223308
35	0x3e48f3c2	0.19624236
36	0xba814578	-0.0009862622
37	0x3df4e266	0.119572446
38	0x3d747b72	0.05968804
39	0x3c0f8f34	0.00876217
40	0x3e273a5d	0.16330858
41	0x3e0d56d1	0.13802649
42	0x3da13cb6	0.07872908
43	0x3e390c46	0.18071088
44	0x3e630eed	0.22173662
45	0xbde5a737	-0.11213534
46	0x3e508598	0.20363462
47	0xbe4c192e	-0.1993148
48	0x3e23084c	0.15921134
49	0xbd378f02	-0.044814117
50	0xbe113550	-0.14180493
51	0x3e1b719b	0.15180056
52	0xbded1a91	-0.11577333
53	0x3e009f6c	0.12560815
54	0xbe45242d	-0.19252081
55	0xbe376895	-0.17910989
56	0x3e83b41d	0.25723353
57	0x3e1d47ce	0.15359423
58	0xbbea4c38	-0.0071501993
59	0xbdf969f8	-0.12178415
60	0xba4fae50	-0.0007922398
61	0x3c563c0f	0.0130758425
62	0xbe251416	-0.16120943
63	0xbe0cb7aa	-0.13741937
64	0x3e891dce	0.26780552
65	0x3e4c8914	0.19974166
66	0x3d60b14c	0.054856583
67	0xbe6b6e8e	-0.22991392
68	0x3dbdf947	0.092760615
69	0x3e499986	0.19687471
70	0xbd2663b7	-0.04062244
71	0xbdcf7d93	-0.10131373
72	0xbdb4f9ef	-0.088367335
73	0xbe1a96d3	-0.15096597
74	0xbdef319e	-0.116793856
75	0x3b96403a	0.004585293
76	0xbd6c5fc6	-0.057708524
77	0xbe13833c	-0.1440553
78	0xbc88188a	-0.016613264
79	0xbdcef21f	-0.10104775
80	0xbe42efd0	-0.19036794
81	0xbd326e18	-0.043562025
82	0x3e079055	0.13238652
83	0x3e513b7b	0.20432846
84	0x3d8a005b	0.06738349
85	0xbe01571e	-0.12630889
86	0xbd9aedcc	-0.075648874
87	0xbdcf9e3b	-0.10137602
88	0x3e147440	0.14497471
89	0x3d4f22b2	0.050570197
90	0xbd24b3f0	-0.040210664
91	0xbd2acd75	-0.041699845
92	0x3e4324f6	0.19057068
93	0x3d8947ab	0.06703123
94	0x3e0bfecb	0.13671415
95	0xbe4b3f49	-0.1984836
96	0xbe393da3	-0.18089919
97	0x3e56425c	0.20923752
98	0xbe005d75	-0.12535651
99	0xbdedf126	-0.11618261
100	0x3e2b05b4	0.16701394
101	0xbe49a6b7	-0.19692503
102	0x3e3a4255	0.18189366
103	0xbe46936d	-0.19392176
104	0xbe629048	-0.22125351
105	0xbe667dd9	-0.22508945
106	0x3d4da525	0.050206322
107	0x3e36fd53	0.17870073
108	0xbe3f5fc8	-0.18688881
109	0xbde54724	-0.111952096
110	0xbdbe76f1	-0.0930003
111	0xbd546cb5	-0.051861484
