output/best_GCN_model_cora.pkl (torch, 94512 bytes, 4 tensors)

conv1.bias f4 [16]
000000 af 56 5d 3d f7 38 3f 3d 76 af be bb 48 43 a8 3d
       0.054037746 0.046685185 -0.0058192564 0.08215958
000010 0d af af b8 11 f0 83 ba 03 03 d7 3d 37 d0 87 ba
       -8.377256e-05 -0.0010066052 0.10498621 -0.0010361735
000020 7d 3c d7 b8 dd 48 d3 3d ff c8 81 3d 12 da fe 3d
       -0.00010263266 0.10316632 0.06337165 0.12443937
000030 49 28 a2 3d c9 ed 29 3d b0 0f fd b9 d1 4b a7 3d
       0.0791784 0.041486535 -0.00048267609 0.08168758

conv1.lin.weight f4 [16, 1433]
000000 a6 c3 a8 bd b4 ea f4 3b 88 6c 5d 3d cb d3 0a 3e
       -0.08240442 0.007474268 0.05405858 0.13557355
000010 05 3e f9 3e 56 2a 88 3d 8d 15 12 be 62 65 07 3d
       0.4868013 0.066487 -0.14266033 0.03305567
000020 35 0f 39 be 8e 7e 10 3d 8e 98 91 3d 4a ba 97 3d
       -0.18072207 0.035276942 0.071091756 0.07408579
000030 e6 57 89 3e 77 04 ab bc ec d4 bb 3d 87 7d e5 bd
       0.26824874 -0.020876152 0.09171471 -0.11205583
000040 66 f9 8a bd 05 8d 2c bb 42 e1 95 be ca 46 b0 bf
       -0.0678585 -0.0026329171 -0.2927342 -1.3771603
000050 06 70 35 bc 3b 9a 2a 3d f4 8b 53 3c 40 4e eb bc
       -0.011074072 0.041650992 0.012911785 -0.028723836
000060 c8 23 02 be 90 72 17 be 18 97 58 3e 1a 6e 25 3d
       -0.12708962 -0.14789796 0.21151388 0.040388204
000070 91 33 d2 3d 03 dd a2 bd 32 ce 98 3e 04 d7 96 3c
       0.10263742 -0.07952311 0.29844815 0.018413074
000080 2f d1 b6 bd f1 da de ba 0a 45 c6 3d 6a 56 b7 3b
       -0.08926617 -0.0017002505 0.09681137 0.005595018
000090 3d 3a a8 bd 27 ba 2e 3c 30 7f 62 3e 85 d0 0d 3d
       -0.08214233 0.010664499 0.2211883 0.034622688
0000a0 bb 49 c8 3e 88 59 33 3f 24 d6 81 b9 29 c4 b9 3d
       0.39118752 0.7005849 -0.00024764345 0.09070618
0000b0 ac b1 95 bc b1 f6 7e 3d 6d 13 3d 3d c0 67 4d 3e
       -0.018273197 0.062246982 0.046161104 0.20059109
0000c0 78 ab 4f 3d b1 4b ae 3d 0a f5 93 3e 58 8b 20 bf
       0.050700635 0.08510531 0.28897887 -0.6271262
0000d0 55 42 2b 3e 58 2b ab 3d 3a d3 c5 3e e4 f4 c1 bd
       0.16724522 0.083578765 0.38637716 -0.09470537
0000e0 52 70 59 bd 9a c5 c0 3c de c8 8b be b3 f3 3f 3c
       -0.053085633 0.023531724 -0.27301687 0.011715817
0000f0 63 87 49 3e 6d 3c 41 3e 40 fe 60 3d d0 4e 8a 3e
       0.19680552 0.18870707 0.05492997 0.27013254
000100 34 71 9f 3e 7f f4 2c be f4 6a ea bc 90 ff 22 3e
       0.31141055 -0.16890143 -0.028615452 0.15917802
000110 be 79 34 be 7d 44 6b be 3a 77 0d 3e e4 e3 03 3e
       -0.17624566 -0.22975345 0.13815013 0.12879902
000120 6c 36 6c be a8 77 f5 bd 5d ff 1c 3e db b6 59 bd
       -0.23067635 -0.11985713 0.15331788 -0.0531529
000130 9a 7a a0 3e f1 ff ed bd 74 54 94 3e 3f 2d 19 3d
       0.31343538 -0.116210826 0.28970683 0.037396666
000140 82 18 50 bd 16 b8 e5 3e 60 e3 20 3d 11 c8 bd 3d
       -0.050804622 0.4486701 0.03927934 0.09266675
000150 18 b1 4c 3c 67 2f 7a be e0 77 95 be c0 68 09 be
       0.012493394 -0.24432145 -0.2919302 -0.13418865
000160 b4 ce 1b be 9d ab c5 3d cf b3 3a be 3c 8b 6d 3e
       -0.1521557 0.09651873 -0.18232654 0.23197645
000170 f8 7b cc bd d5 a6 64 3f 21 85 41 3c 2d 1d ec bd
       -0.09984583 0.89317065 0.011811526 -0.11529002
000180 bc 5c ff 3d 4c 35 5b 3d 3e 2a 25 bc cb 1b 84 be
       0.124688596 0.053517625 -0.010080872 -0.25802454
000190 0c f6 47 be 3a a5 4d bc 68 79 37 3e 54 65 8e be
       -0.19527453 -0.0125516 0.17917407 -0.27811682
0001a0 47 39 33 3e 99 36 a0 bd de 81 31 3e b7 94 6a 3d
       0.17502318 -0.07822914 0.17334697 0.05727073
0001b0 61 17 f7 3e b0 66 19 be 28 f5 f4 bd cd cc 8e 3d
       0.48260024 -0.14980578 -0.11960822 0.069726564
0001c0 17 f4 8a 3d c3 09 d9 bc 2d eb 98 bd 2c ba 1d be
       0.06784838 -0.026493913 -0.07466731 -0.1540305
0001d0 f5 54 f9 3c 50 b8 3e bd fb 71 79 be 03 94 82 3d
       0.030436018 -0.046562493 -0.24359886 0.06375887
0001e0 91 16 53 3e 45 68 6f 3e 27 43 82 3e ba c3 a4 bd
       0.20614077 0.2337962 0.25441858 -0.080451444
0001f0 4c 0a 15 be 9f 0a 1a be 43 bf 72 be e5 63 ed bc
       -0.14554709 -0.15043114 -0.23705773 -0.028978297
000200 39 f6 0b bc b5 bf 80 be 8f d7 50 bd 15 54 81 be
       -0.008542591 -0.2514626 -0.050986823 -0.25259462
000210 f9 81 00 be 50 71 ae bd 3e 0b 82 3b e1 e9 a1 be
       -0.1254958 -0.085177064 0.0039686253 -0.31623748
000220 8c b3 cf 3a 08 94 cc 3d 44 fe 4d 3d 28 1f 05 3d
       0.0015846356 0.09989172 0.050291315 0.032500416
000230 a9 bd 00 bf 09 45 ba 3d 9d e5 ee 3c c6 87 e7 bd
       -0.502894 0.09095199 0.029162223 -0.113051936
000240 7d 61 05 3e a9 b1 0f be 6c 60 c1 be b1 3e 26 3e
       0.1302547 -0.14032616 -0.37768877 0.16234852
000250 23 6e 7c bd 39 cb 56 3e 98 09 96 bd fd ce 90 bd
       -0.061628472 0.20975961 -0.073260486 -0.0707073
000260 ee eb 1f 3e 8b 63 86 be d7 62 8e bc f4 89 49 3d
       0.15617344 -0.2624782 -0.017381115 0.049203828
000270 4b 8e 02 3c 9c 31 4c be 4a d4 cb 3c 4a fd cb 3c
       0.007968496 -0.199408 0.0248815 0.024901051
000280 3b c8 d5 bd e9 9d 98 3c 5f 9b 36 be 33 f3 aa bd
       -0.104385816 0.018629985 -0.17832707 -0.08347168
000290 56 9e 85 bc 77 5e e0 3d fb d7 9e bc a9 e7 7a be
       -0.016310852 0.10955518 -0.019390097 -0.24502434
0002a0 34 66 54 bb d6 ef e9 3d f0 70 e5 3c 21 8c f7 bc
       -0.003240955 0.11422698 0.028007954 -0.030218186
0002b0 34 82 92 be d0 cd 75 3e 15 b4 31 3e 4e f1 84 bb
       -0.28614962 0.24004292 0.17353852 -0.004057086
0002c0 cd 69 01 bd 01 2c c7 bd 96 03 c5 3d 1a 98 d9 3e
       -0.03159504 -0.0972519 0.096198246 0.42498857
0002d0 71 29 00 bc 85 1b 81 bd f2 07 e1 3d f6 b0 7a bd
       -0.00782238 -0.06304077 0.109878436 -0.06120392
0002e0 9e 94 ab 3c bc bf 19 3d 08 a1 70 3e bb 5e 8a 3e
       0.02094489 0.037536368 0.23498929 0.270254
0002f0 d1 b3 a5 3e a8 82 e4 3d cf 18 45 bc ef 8f 85 3e
       0.32363752 0.11157733 -0.012029841 0.26086375
000300 94 21 1c be e5 8d 02 3e c5 0d 0e 3c 92 8c 42 3d
       -0.15247184 0.12749441 0.008670275 0.04749734
000310 27 a1 a0 3d b4 bb 23 3c 60 9c 03 bd b4 6b e3 bc
       0.07843237 0.009993482 -0.032131553 -0.027761318
000320 6a 78 72 3e 61 cf 59 bd 6e 6c d7 3d 16 af c1 be
       0.23678747 -0.053176288 0.10518728 -0.37828892
000330 5c 6c 2e bd 16 be d9 3e d9 94 6b bd 98 53 13 be
       -0.04258381 0.42527837 -0.057515 -0.14387357
000340 0f fc 35 be 66 7b 56 3d 22 c4 dd bd ef ed 8b 3e
       -0.17771934 0.052363776 -0.10828425 0.27329966
000350 52 49 de 3d dc ab a5 3d 62 ca 11 3d 2c 94 df 3c
       0.108538285 0.0808942 0.035593398 0.027292334
000360 4c 3e 8c 3b f1 c2 18 be 3c af 53 be 18 68 ed bc
       0.0042798873 -0.14918114 -0.20672315 -0.0289803
000370 2f 9f 29 bd 30 cf 10 bb ed ce 4d be 9c 95 d7 bd
       -0.041411575 -0.002209615 -0.20098467 -0.105265826
000380 1e 3f 47 bc 3e 8e 01 3c e1 4c fc 3d 04 8a 28 3d
       -0.012161044 0.007907448 0.12319351 0.041147247
000390 ba bf d4 3e 6b 06 d3 3d e5 e5 69 bd 40 de 74 be
       0.41552526 0.103039585 -0.05710401 -0.23912907
0003a0 18 95 48 bd 95 9c ce 3c 98 54 07 3f ea 76 a2 3d
       -0.048970312 0.025221149 0.52863455 0.07932837
0003b0 2a bc c5 3d 40 4c 51 3e 06 28 42 bf df 30 33 bd
       0.0965503 0.20439243 -0.7584232 -0.04374778
0003c0 12 2e 52 bd c2 d1 0d be a2 ac bb 3d 01 d6 8d bd
       -0.051313467 -0.13849548 0.091637865 -0.06925584
0003d0 bb 4c 65 be 3d 17 36 3e db eb bf be 67 f0 c5 3d
       -0.22392552 0.17782302 -0.3748463 0.09664994
0003e0 66 5b e0 bb b3 e3 17 3e bd c6 b5 bd d7 ec ab 3e
       -0.006846833 0.14832954 -0.08875797 0.33579132
0003f0 db 1c 30 3e db 49 3a bd 14 c9 32 bd c4 46 5b bc
       0.17198507 -0.04548059 -0.043648794 -0.013383571

conv2.bias f4 [7]
000000 83 4d 72 bf b9 ed 8c bf 23 f5 68 bf 96 a3 73 3f
       -0.94649523 -1.1010047 -0.9099905 0.9517149
000010 71 ef b3 3e 88 66 7e be 2d 66 5e be
       0.35143617 -0.248438 -0.21718664

conv2.lin.weight f4 [7, 16]
000000 ab 25 30 40 0b 53 2a c0 92 a0 b2 9b 49 8f 24 40
       2.752299 -2.6613185 -2.9551396e-22 2.5712454
000010 82 fb e1 b0 67 dc b0 1b e8 52 30 c0 59 8a a0 1c
       -1.6442387e-09 2.925919e-22 -2.7550602 1.0623674e-21
000020 64 f5 f4 9c 61 46 19 c0 cd 36 b7 3f 56 00 54 40
       -1.6209998e-21 -2.3949206 1.4313599 3.3125205
000030 75 2b 3d c0 61 ee 70 40 dd a6 54 a1 60 3c 92 40
       -2.9557774 3.7645495 -7.2049236e-19 4.56987
000040 d3 db 0e 40 cb 12 09 40 e2 29 66 9b dc db 6a c0
       2.232167 2.141772 -1.9038687e-22 -3.6696692
000050 14 d8 8a 33 3b cd 2b 1d 23 b9 e3 bf 9a f4 cb 9b
       6.46543e-08 2.2737763e-21 -1.7790874 -3.3741603e-22
000060 5a 5d ce 9d 96 74 aa bf 27 4c 3d 40 f4 11 85 bf
       -5.462427e-21 -1.3316829 2.957773 -1.0396104
000070 ff 44 95 40 94 49 7f 40 5a 41 2c 1f 95 9f 13 c0
       4.6646724 3.9888659 3.6476474e-20 -2.306615
000080 6b 06 4e c0 c0 7b 7c 40 0f 01 b7 1c 47 b0 13 c0
       -3.2191417 3.945053 1.2110198e-21 -2.307634
000090 2e 75 f3 33 19 f8 33 1b 02 3e 6c 40 0e a8 a5 9d
       1.1336884e-07 1.4886698e-22 3.6912847 -4.38489e-21
0000a0 34 1a 54 9d c6 6e 80 40 3b f5 4b 40 ce 5c 3b c0
       -2.8071513e-21 4.013522 3.1868427 -2.9275393
0000b0 9f 10 43 c0 00 e8 61 40 1b 84 7a 9e 3f 78 05 c0
       -3.0478895 3.5297852 -1.32622086e-20 -2.0854642
0000c0 8a 09 56 c0 85 2d 74 c0 14 48 ad 1c 2d 68 9d c0
       -3.3443322 -3.8152783 1.1466811e-21 -4.918967
0000d0 2d 37 32 b0 3e 23 5d 1d df 42 3f 3f ec b5 3b 1c
       -6.483443e-10 2.9267326e-21 0.7471141 6.210824e-22
0000e0 8b 34 19 9c 53 d8 66 40 29 4e 6d c0 59 e5 13 40
       -5.0691364e-22 3.6069534 -3.7078955 2.3108733
0000f0 35 39 5c 40 03 12 5d c0 c0 f8 ab 9f c3 88 76 40
       3.4409916 -3.4542243 -7.283284e-20 3.8520973
000100 33 a9 5b c0 9b 26 f1 bf 47 dc 5a 9d 02 71 51 40
       -3.432202 -1.8839906 -2.896594e-21 3.2725224
000110 58 a8 6c b1 a5 b3 82 1b 5a df 81 40 72 20 ae 9c
       -3.4438212e-09 2.1622788e-22 4.0585146 -1.1522741e-21
000120 00 6f 56 1d 25 08 6e c0 87 c3 4c c0 3f be 74 40
       2.838005e-21 -3.719247 -3.199434 3.8241117
000130 5d e2 6c c0 5d ff 2b c0 d9 68 18 a0 bc 0a 80 c0
       -3.701316 -2.6874611 -1.2909592e-19 -4.0013103
000140 3e b7 1d 40 92 15 8c 40 77 f6 11 1d da b7 64 40
       2.4643092 4.377633 1.931801e-21 3.5737214
000150 35 7f 9a b2 e5 89 ae 9c a0 85 36 c0 1f 87 50 1c
       -1.7985807e-08 -1.1549999e-21 -2.8519058 6.8996067e-22
000160 c2 24 49 9d 6b 98 12 c0 69 d6 73 c0 5d 3d 4c c0
       -2.6621132e-21 -2.2905529 -3.8099616 -3.1912453
000170 e7 9c 0c 40 8f f5 0d c0 ce bd f5 9d 5c ca 9c bf
       2.1970766 -2.2181127 -6.5047213e-21 -1.2249255
000180 de b2 3e 40 2b 69 32 c0 72 b3 8e 1d 35 52 e6 3f
       2.9796672 -2.787669 3.777263e-21 1.7993838
000190 d3 31 9c b0 6c 69 7e 9c 0e 73 1d c0 00 aa ab 9d
       -1.1364655e-09 -8.4177805e-22 -2.4601474 -4.54391e-21
0001a0 8e 21 5c 9d 99 79 c7 be d8 15 67 40 b6 c5 48 c0
       -2.9134105e-21 -0.3895996 3.6107082 -3.1370673
0001b0 ad 55 2e c0 e4 3f 5a c0 48 4b 02 1d 59 dd 01 c0
       -2.7239792 -3.4101496 1.7244276e-21 -2.029135
