output/best_GCN_Model.pkl (torch, 279368 bytes, 6 tensors)

GCN1.bias f4 [16]
00000000: 92cb 863e 9b6d 8b3e 5758 8b3e d90a 933e
00000010: a26f a23e 4c69 ae3e 6728 52bc f1f2 4bbc
00000020: a80f ab3e 907d 633e 7a54 843e fbc0 843e
00000030: d04c 893e b4b0 803e 534e 9c3e feb4 9b3e
0.26327187 0.2723206 0.27215835 0.28719214 0.31725794 0.3406471 -0.0128270155 -0.012448058
0.33410382 0.22215867 0.258457 0.25928482 0.26816416 0.25134814 0.30528507 0.30411524

GCN1.lin.weight f4 [16, 1433]
00000000: 1d4f 8abd 0e26 a33d 9dd5 93bc b668 753d
00000010: d0a8 59bf d4fc 1b3d 2af5 debd cd24 593d
00000020: 7b56 2ebe 58af 1b3c 971d d13d 959e eb3b
00000030: 0eb3 28be 8301 843e f8dd 10bd ff99 f2bb
00000040: 7b82 5bbe 7760 64bd db8a 98bd 705f 353f
00000050: c9eb 8ebc a64f 7f3d 65e0 33bb 34d6 b63d
00000060: e4f3 c43b 12a5 95be 695a a0be 3581 3bbe
00000070: 4bba bcbc 7c1f 463c b112 1d3d d9f6 82bd
00000080: 9fcc de3d 6606 a2bd 3f2b a73d 2d4e 89bd
00000090: 56f4 cc3c 6e22 12bd 2aa4 90bd e1f6 2e3e
000000a0: 9413 04bf 41f5 56be 3117 f13b 3c89 3bbc
000000b0: b728 18be 0842 e23c 1e0a 263d 935b 133d
000000c0: f03f 703d 2987 51bd b7af 393d 0dc1 2bbf
000000d0: 222e 913e 7428 563d 4a9e c0be e05e 25bd
000000e0: 4fa4 d7bd 3ff1 d03d 8ba7 76be 3634 9dbd
000000f0: 4c13 61bd 4fc8 0b3d 6ddc 7bbd c762 25be
00000100: dd24 53bd 0525 4c3e eb53 ba3d 0d4c 0f3e
00000110: f6e1 ab3c 8dff d0bd dbc4 c23c 4879 edbc
00000120: 025e 3f3e 6cd9 8a3e eca5 13bc c76d 953e
00000130: ff7b 4c3d 12d1 39be fff9 84be 11ba 81bd
00000140: c013 013d 5355 8f3b 1107 2abe 72f6 343c
00000150: 8722 6fbd e513 093f c668 1c3e 860e 0dbe
00000160: 92aa 043f ef35 79be cbd6 533c 5128 83bd
00000170: b9c6 f2bd 0451 ccbe 8b4a 88bd 9db5 20be
00000180: a8a7 edbc ff07 f3bd 8b45 573d ea22 02be
00000190: cfd5 97bd 5b0b 5d3d dc97 86be 00b2 0c3e
000001a0: daef 883d 3693 963d c7b0 f6bd 6387 67bc
000001b0: 365a dc3c 35b5 993d fffd 0b3d 396b 2f3c
000001c0: 38f8 cdbd dc98 a7bd c871 793d e6a3 773b
000001d0: ccde 9abc 3f25 803d 110c 87be 34d0 adbc
000001e0: 30a4 c7bb 1568 b03d 8581 c5bd cfa1 91bc
000001f0: d4d0 b23c 65ed 74bd ab35 0ebe 51ec 18be
00000200: af99 c73e 0862 8dbe 42f9 fc3d 95c2 18be
00000210: 4e02 cd3e ab4c aebd 438e 6ebc 4582 41be
00000220: 4c85 b63e f610 bc3c af2c d13c f93d 66bb
00000230: 12cc fcbe 4e42 a0bd aaca 293d 55c3 8f3e
00000240: 6e02 1cbd 188d a1bd 7e0e 383e 65ad 87bd
00000250: 976f 83bb ff8a c3bc 9c81 6d3d 6ff6 78be
00000260: 2750 093c 0840 36bb a15e b7bd bd16 af3b
00000270: 260f 583d a249 cd3e df41 a2bd d9b3 86bd
00000280: f1e2 4d3e 80dc c13b 259c ac3c 9a49 95bd
00000290: 953a 79bd 5dc5 8abc 66be 993d 9071 2c3e
000002a0: 5c7c 0d3e 163b d0bc 22fb cdbd d1a7 d93d
000002b0: 7fa3 77be c4cf 18bc 24fb 573b 78c5 ac3d
000002c0: 6e5d 943e fdff 083d 815a dcbd 50cc e0bb
000002d0: a58f e2bc 6ea3 3ebd c798 96bd f961 3abd
000002e0: 0045 a73c 67cd 23bb 9c42 d73b cf76 a9be
000002f0: 716f a43d 450b 153d 0082 193c fdb8 70be
00000300: 8d8b dcbd 7db0 28bc e257 a53c d0b6 c1bd
00000310: 17b0 8b3d 6baa 4ebd 45b0 37bd 534b ddbc
00000320: 6f63 073d 34d0 b13d 340b 0cbe ab5c 883e
00000330: e961 a53d d0d3 50bc 7e53 c3bb bbbd 2e3e
00000340: e514 2d3e ad3a 853c 90a3 89bd 043b 13be
00000350: c052 683c 2486 df3c b688 0cbd 08df 0b3d
00000360: 6107 db3d b87c 903e e2b1 693e 82f5 dbbc
00000370: db87 babc 7e38 59bb c03c f9bd 94da 6eba
00000380: 4dee a53c eec4 e9bd aa03 813c 0752 123c
00000390: bbd9 673c 40b4 223d c1f9 9f3d 56d9 353e
000003a0: 9d52 b4bd a614 bf3c f3bb bdbe 5b3a 703c
000003b0: c2db d5bd c03f 5cbd 1397 0e3f daac a63c
000003c0: e661 f83d 7b12 3c3d fbd3 4cbd bdb2 0d3d
000003d0: c13e 2bbc 20de f8bc f110 bfbd 3aa9 b73c
000003e0: 957a d1bc c4fc 363c 7bdf 46be d6e6 b8bc
000003f0: 7b59 89bd 7d63 c7bb 1040 0e3e 85de 2dbd
-0.06753371 0.07966243 -0.018046195 0.059914313 -0.8502321 0.038082913 -0.10886605 0.05301361
-0.17025177 0.009502254 0.10210722 0.0071905353 -0.16474554 0.25782403 -0.035367936 -0.0074036117
-0.21436493 -0.05575606 -0.074483596 0.7084875 -0.017446415 0.062331818 -0.0027446982 0.08927575
0.0060105193 -0.292275 -0.31318977 -0.18311007 -0.02303805 0.012092467 0.038347904 -0.06394739
0.10878872 -0.07911377 0.081625454 -0.06704364 0.025018852 -0.035677366 -0.07062562 0.17086364
-0.51592374 -0.20991994 0.007357501 -0.011446293 -0.14859281 0.027619377 0.040536992 0.035976004
0.058654726 -0.05115429 0.04533359 -0.6709145 0.2835551 0.052284673 -0.37620765 -0.040373683
-0.10529386 0.10202264 -0.2408735 -0.07675974 -0.054950044 0.034126576 -0.06148951 -0.16150962
-0.051548827 0.19935997 0.09098037 0.13993855 0.02098177 -0.102049924 0.023775509 -0.028988495
0.18688205 0.27119005 -0.009011727 0.29185316 0.04992294 -0.1814616 -0.25971982 -0.063343175
0.031512976 0.004374185 -0.16604258 0.011045085 -0.058382537 0.5354598 0.15274343 -0.13775072
0.5182277 -0.2433698 0.012929629 -0.06404174 -0.118543096 -0.3990556 -0.06654843 -0.1569428
-0.029010609 -0.118667595 0.052556556 -0.12708631 -0.07413828 0.053965908 -0.26287735 0.13739777
0.06686373 0.07352297 -0.12045436 -0.0141314 0.026898485 0.075052656 0.034177776 0.010706716
-0.100571096 -0.081834525 0.060899526 0.00377869 -0.018905066 0.06257104 -0.26376393 -0.021217443
-0.0060925707 0.08613602 -0.096438445 -0.017777352 0.021828093 -0.05979671 -0.1388766 -0.14933898
0.3898444 -0.27613854 0.1235223 -0.14917977 0.4004082 -0.08510717 -0.014560285 -0.1889735
0.35648572 0.022957306 0.025534002 -0.0035132153 -0.49374443 -0.078251466 0.04145304 0.28078714
-0.038088255 -0.078882396 0.17974278 -0.06624869 -0.0040111053 -0.02386999 0.057984933 -0.24312757
0.008380926 -0.0027809162 -0.08953596 0.005343287 0.05274882 0.4009524 -0.0792272 -0.06577272
0.20106103 0.005916178 0.02107055 -0.07289429 -0.060846884 -0.016939813 0.07507019 0.16840196
0.1381697 -0.0254188 -0.100576654 0.106277116 -0.24183463 -0.009326879 0.0032956088 0.08436102
0.2897753 0.033447254 -0.1075945 -0.0068602934 -0.027656386 -0.046542577 -0.07353359 -0.04550359
0.020418644 -0.0024994256 0.0065692198 -0.33098456 0.08029068 0.0363877 0.009369373 -0.23508067
-0.10768805 -0.010295984 0.020183507 -0.09458697 0.06820696 -0.050455492 -0.044845838 -0.027013456
0.03305381 0.0868229 -0.13676149 0.266332 0.080753155 -0.012745813 -0.005960881 0.17064564
0.16902502 0.01626333 -0.0672065 -0.14377981 0.014179885 0.027285643 -0.034310065 0.034148246
0.10694767 0.28220153 0.22821763 -0.026850466 -0.022769859 -0.0033145244 -0.1216979 -0.000911155
0.020255232 -0.114145145 0.015748817 0.00893069 0.014151032 0.03972268 0.07811309 0.17758688
-0.0880482 0.023325276 -0.37057456 0.0146623505 -0.10442306 -0.053771734 0.5569927 0.020346094
0.12128048 0.04591606 -0.050006848 0.034594286 -0.010451973 -0.030379355 -0.09329403 0.02241956
-0.025571147 0.011168662 -0.19421189 -0.022571009 -0.0670652 -0.006084858 0.13891625 -0.04244854

GCN2.bias f4 [16]
00000000: 08fe 8c3e 216f 9a3e 12ea 813e 4831 a0be
00000010: 5683 95be 0a60 a7be 07be 7d3e 0907 90be
00000020: 2c81 87be a7ba 85be ae1f 8c3e ab4b 8c3e
00000030: 4b66 7d3e 83a6 8abe f989 78be 03bd 7fbe
0.2753756 0.3016291 0.25373894 -0.312876 -0.29201764 -0.3269046 0.24779521 -0.28130367
-0.26465738 -0.26118967 0.2736792 0.2740148 0.24746053 -0.27080163 -0.24271382 -0.24974446

GCN2.lin.weight f4 [16, 16]
00000000: f625 5e3e 38aa 3a3d 97d6 a03e 4bb6 7f3e
00000010: 5f12 c13e f4c9 ce3e ebf8 c1bb b9bc 0bb4
00000020: 695e df3c f5e3 503f ebd4 133f 91b7 2d3f
00000030: 2860 3c3f dfe1 80bd 47c2 943e eacf de3e
00000040: 40ad 043b c86f c33e 1a88 203f c16a e43e
00000050: 8776 893e b329 ae3e a85d aca2 c05c 103a
00000060: 41d9 773e 0a8f 943e 2644 dcbc e232 193f
00000070: f915 023f dff8 d23e d663 2b3f 1dc6 963e
00000080: f613 423f 0dbe 08bd e22d 273d 5701 1d3f
00000090: d410 053f 655a cc3c 7d4c cc37 634c d739
000000a0: a50d 56bd 5810 3e3f e3e1 3f3f 60d9 fb3e
000000b0: ae24 823e fe0f 033f f61e 913e 6be5 193f
000000c0: 2c0a 963e df30 12bf ddde bbbe 562d e5be
000000d0: df49 01bf 67f4 0abf b926 039d d8f1 cdbb
000000e0: 929c 0dbf 7627 69bf 6834 50be 5b76 943d
000000f0: a07b 8c3d 2024 773e 63fb 10bf e767 08bf
00000100: 7661 4a3e 63ab 7ebd 2ca8 38be 2aa0 7fbe
00000110: 4406 b7bd c2b4 a8bb 2507 e23a 2071 e93b
00000120: 31a0 10bf db5c 92bf 9b21 3bbf fc35 b7be
00000130: a030 cabe 01e5 a2be cb9e f1be 582f fcbd
00000140: 986c 19bf 6e6d d03d 8d9a 4cbe 0018 08bf
00000150: 309a 08bf 4ad0 9ebe 200a 9538 49e4 943a
00000160: 133e 2cbf 9518 79bf 6200 20bf c324 c03d
00000170: 1982 e4bd 854e 98be 0bf7 30be 06c7 48bc
00000180: 71e3 363f 1a08 873c a8c7 443e a8ec 173f
00000190: 25f2 ea3e 9025 2d3f 74b9 b6a6 28b4 ac27
000001a0: bfea ea3d e29f 8d3e 01cd cb3e 8964 0e3f
000001b0: 3e7e 873e e04a cc3c 6950 813e 6e54 183f
000001c0: b624 cebe 7097 3cbf 1912 0abf 0a80 d0bc
000001d0: 266a f0be a8f1 edbe a06d 663c 8e64 be1b
000001e0: 4916 ddbe 89ea 3e3e b8b4 02bd c12c d4be
000001f0: 1122 7a3d 52de 17bf 4d68 41bf f1d2 b2be
00000200: 6c69 a4be 5300 6ebe 85ce 35be 2488 04bf
00000210: f2b5 bfbe 744f 36bf 92d2 24ac 3535 359d
00000220: 3b59 3b3d 7130 29bf 916a bfbe 4d5e 24bf
00000230: 9c95 fa3b dfee 29bf 69cb f13d 8046 b7be
00000240: 776c 1fbf 339c 37bf 7b66 fbbe 09a5 c3be
00000250: 79dc 223e dc0a abbe 27cd 8729 177b 521c
00000260: 8792 68bc 846e 283e faf1 25bf c294 94be
00000270: 55dd 65bf 17c1 48bf f59f b6be c9e0 04bf
00000280: 8579 e43e fcef d23e c799 243f 84c4 033f
00000290: 791b 55bd a199 cbbd 6a51 64ba 38f3 61b6
000002a0: bfb5 963d 2b1e acbd 6629 133f b1bb 373f
000002b0: 8ed4 3a3f ca30 153f 6ef4 a5bd 66f5 183f
000002c0: db7c 423e e482 803e 2ff9 cb3e 3f92 013f
000002d0: ab4b b53e 640b 163e 28e2 ceb8 9954 6527
000002e0: b06c 083f ee42 7b3e 92da 033f 32e2 c7bd
000002f0: ab3f 423f 7511 063f cf34 033e 0110 aa3d
00000300: a4b9 3b3e 8b1d 063f 1e20 023f dc8d 0c3f
00000310: c0d3 033f 31d5 523d a5f5 84bb 3c2a 0fb3
00000320: 8588 eb3e 082b 8a3e d6f0 023f c939 b23e
00000330: 9ede 4a3f 6c61 8c3d 4545 263f 1797 e63d
00000340: 7452 c9be 8d42 9bbe fc3d 12bf 791f f43c
00000350: cd47 27bf 9fcf 12bf d253 c83b e4ca 5036
00000360: f6f9 32bf 1b70 b13b 705d 22bf ee46 e9be
00000370: d572 f83c 73fd 08be 6765 1dbf 36cb 25bf
00000380: bdd7 14bf 7b1b 3cbf c10d f6be 42fc dfbd
00000390: a641 16be cf40 bbbd 397b 2bba 8f05 613a
000003a0: 0c94 a2be 8e0a 1d3e 063d c73d 1deb 2fbf
000003b0: e5e1 f3bd 523c 12bf 84ab 7bbc cf54 8ebe
000003c0: d4f9 e23d 8643 41bf a981 27bf 6556 c4be
000003d0: 6c27 2ebf 1eb2 c8be 6eab 0a21 b066 ff3b
000003e0: 8855 fabe a0c3 873e b80d bb3d 1609 36bf
000003f0: 8232 393e b94f 84be afe0 1abf 4a57 ce3c
0.21694168 0.04557249 0.3141372 0.24971883 0.3770933 0.40388453 -0.005919566 -1.301404e-07
0.027266698 0.81597835 0.5774676 0.67858225 0.7358422 -0.062930815 0.29054472 0.43518
0.0020244867 0.3817122 0.62707675 0.44612697 0.26848242 0.3401619 -4.6719856e-18 0.0005506985
0.2420397 0.2901538 -0.026887964 0.59843266 0.5081478 0.412055 0.6694921 0.29448023
0.7581171 -0.03338437 0.04081524 0.6133017 0.519788 0.024945447 2.4354313e-05 0.00041064908
-0.052259106 0.7424369 0.7495405 0.4918928 0.2541861 0.5119628 0.28343934 0.6011569
0.29304636 -0.5710582 -0.3669347 -0.4476115 -0.50503343 -0.5427918 -1.7357725e-21 -0.0062849335
-0.5531703 -0.9107584 -0.20332491 0.07249137 0.06859517 0.24134874 -0.56633586 -0.5328354
0.19763741 -0.062175166 -0.18032902 -0.24963441 -0.08936742 -0.005148501 0.0017244561 0.0071240813
-0.5649443 -1.1434587 -0.7309815 -0.35783374 -0.39490223 -0.3181534 -0.47191462 -0.123137176
-0.59931326 0.10177122 -0.19980831 -0.5316162 -0.5336027 -0.31018287 7.1067596e-05 0.0011359538
-0.6728222 -0.97303134 -0.62500584 0.09382012 -0.11157627 -0.29747406 -0.1728174 -0.012254482
0.714408 0.016483355 0.19216788 0.59345484 0.45887867 0.6763544 -1.2679054e-15 4.7934916e-15
0.114705555 0.27661043 0.39804843 0.55622154 0.26463503 0.024938047 0.2525666 0.5950383
-0.40262383 -0.73668575 -0.53933865 -0.025451679 -0.46955985 -0.46473432 0.014064223 3.1497845e-22
-0.43181065 0.18644156 -0.031910628 -0.41440395 0.061067645 -0.5932361 -0.75549775 -0.3492656
-0.3211168 -0.23242311 -0.17754562 -0.51770234 -0.374435 -0.71214986 -2.3422692e-12 -2.3982658e-21
0.045739394 -0.6608954 -0.3738599 -0.6420639 0.0076472294 -0.66380113 0.118063755 -0.35795975
-0.6227488 -0.71722716 -0.49101624 -0.3821185 0.15904416 -0.33406723 6.0307926e-14 6.964226e-22
-0.014195091 0.16448408 -0.6482235 -0.29019743 -0.8979085 -0.7841963 -0.35668913 -0.51905495
0.44623962 0.4119872 0.64297146 0.51471734 -0.052028153 -0.09941412 -0.00087096414 -3.3669185e-06
0.07358884 -0.084041916 0.57485044 0.7177077 0.7298058 0.5827757 -0.08103262 0.5974945
0.18992941 0.25099862 0.3983855 0.5061378 0.35409293 0.14652783 -9.86497e-05 3.1825995e-15
0.53290844 0.2453725 0.51505387 -0.0975994 0.758784 0.5237039 0.12813114 0.08303834
0.18332535 0.5238883 0.50830257 0.5490396 0.5149498 0.051472846 -0.0040576034 -3.3333194e-08
0.46002594 0.26985955 0.51148736 0.34809712 0.79245937 0.06854519 0.64949447 0.11259287
-0.3932072 -0.30324212 -0.5712583 0.029800164 -0.65343934 -0.57348055 0.006113508 3.1112513e-06
-0.6991266 0.0054149753 -0.63423824 -0.45561928 0.030328194 -0.13377933 -0.6148285 -0.647632
-0.5814169 -0.7347943 -0.48057368 -0.10936786 -0.1467348 -0.09143221 -0.0006541494 0.0008583897
-0.31753576 0.15336058 0.09728436 -0.6871813 -0.1190832 -0.5712329 -0.015360717 -0.2779908
0.11082807 -0.7549366 -0.6543222 -0.38347164 -0.68028903 -0.39198393 4.6983104e-19 0.0077942237
-0.4889338 0.26516438 0.09133476 -0.71107614 0.18085673 -0.25842074 -0.6049909 0.025188107

Linear.weight f4 [2708, 16]
00000000: e8e1 5b3e 7d2c f83e 1233 743e a70b 25be
00000010: b956 f2be d8cc bcbe 2722 1e3e 39a5 16bf
00000020: 0840 92be f05d f8be b907 2e3e 4ba9 303e
00000030: 2d6b dc3e 8e24 d1be c4b7 08bf c89d 0abf
00000040: cf81 173e 00f8 753e f65e 073f 8c57 82be
00000050: 4e20 28be 18f7 62be 28c5 e23e feea ffbe
00000060: 655e 03bf 2d81 c8be 2060 e83c c286 ae3e
00000070: ec5d 1b3e 8eed f3be 0891 04bf 3e77 01bf
00000080: 7018 043f 7433 163e 6983 193f e897 3abf
00000090: b21c 45bf 13d4 21bf f864 003f aae8 55bd
000000a0: a6a1 11bf adc3 573d e483 363d d311 c33e
000000b0: c419 a03e 997a 9ebe 88b5 7c3d 1563 cbbd
000000c0: 781b be3e 40d7 743e 84cc b83e 1583 4cbd
000000d0: 6554 3cbe 95df babe 7617 f43e c984 95be
000000e0: 2aa9 e5be b7ae 29bf 5db5 223f ff92 1a3f
000000f0: 81d6 eb3e 1f76 78be 005b 0ebf 347b e7bd
00000100: 74ae f73e f589 023f afa0 a6bc 4a85 03bf
00000110: 1d57 babe f72a c43d ffa1 e53e 588c a3be
00000120: 2200 71be b8e3 41be 3f70 033f 9c48 0d3e
00000130: e7e7 f63e 4890 02bf 75bb 0bbf 5b8d 0ebf
00000140: 4ca3 083f 7eab ee3e 9a16 023e 2c34 07bf
00000150: b907 17bf d572 01bf fd92 763e 4408 92be
00000160: a9bb 96bd 52e4 4dbe c8a1 0e3e bac3 ea3e
00000170: 2e13 013f 113c 77be b419 e6be c396 53be
00000180: 467b dd3d 395f 433e 5175 d33e ae09 48be
00000190: 52f3 7bbe 70a6 96be d35d 083f 1c36 1fbf
000001a0: 2c1c 63be e8fb 34be 2065 503e 33b9 a23e
000001b0: d474 cc3e c270 c7be c1a0 07bf 2173 b8be
000001c0: 69a6 73bc cc61 7fbc 7f8e 83bc 0204 823c
000001d0: e237 583c 11d0 7a3c d534 89bc 9345 8b3c
000001e0: 7010 6f3c 5b81 963c 8888 83bc 9bfd 5fbc
000001f0: 96f1 8ebc 5528 9a3c 9f3d 423c 3f69 683c
00000200: 19fb 75bc e00e 8abc 3126 89bc 7ee0 6a3c
00000210: f8bd 583c 238e 783c 0051 8cbc b59e 973c
00000220: 429a 503c 8977 a13c 3b26 86bc b964 5bbc
00000230: f006 9fbc 4f6a c43c bb73 3d3c 8807 723c
00000240: 57b7 77bc 5d3b 84bc b010 81bc 364c 7b3c
00000250: 5aa3 5e3c 0ec4 7e3c 7029 86bc 3717 863c
00000260: 590a 7f3c bcc5 8d3c a78d 74bc 17d3 64bc
00000270: 2b35 89bc dd61 993c 2712 473c 848b 6b3c
00000280: 7479 75bc 0a84 81bc 472d 82bc fe29 793c
00000290: 815a 5d3c c34d 773c 5326 8abc 5707 863c
000002a0: d229 6e3c 966a 8b3c a264 71bc 1f9f 63bc
000002b0: 2cfb 87bc b88c 953c 5181 453c 2329 673c
000002c0: 0b71 73bc 0281 81bc c707 7fbc b500 763c
000002d0: 3406 5d3c ab1c 753c a740 7fbc 408d 853c
000002e0: 5222 6c3c df78 8f3c 88e4 7bbc 84da 68bc
000002f0: cfab 91bc 6a8f 9d3c 25f9 423c f95c 683c
00000300: 9723 76bc 9f04 7dbc 6b87 82bc 3bc3 6f3c
00000310: a8ff 583c ae14 763c 12d8 8abc 7733 903c
00000320: c012 723c 7f7a 8e3c 7b8a 7cbc b443 60bc
00000330: 2084 85bc c647 b73c 4ffc 413c fe80 703c
00000340: 322d 6fbc 25bb 83bc cf97 82bc fd93 753c
00000350: c3ef 623c 77e3 7a3c 97c0 81bc 6615 903c
00000360: 4c77 6e3c 4b71 943c bec9 74bc 6caa 5ebc
00000370: 2688 91bc b007 a73c ca26 463c 0b35 6a3c
00000380: 462e 75bc f9cc 82bc 6b40 80bc f15b 813c
00000390: 28fc 583c 5789 733c d378 8abc 5afb 8a3c
000003a0: 4b65 6e3c 4b08 963c d7d5 77bc 851e 5fbc
000003b0: a427 8dbc 74d7 aa3c 037d 423c a939 633c
000003c0: 9881 82bc 681a 85bc 416b 82bc 1ace 7a3c
000003d0: f9a6 5e3c ddf6 783c 9201 8dbc 2a96 883c
000003e0: 338e 753c 1087 913c 85c1 7ebc 7f8b 65bc
000003f0: c966 8cbc 3a89 9e3c 275b 463c 85a4 693c
0.21472895 0.48471442 0.23847607 -0.16117726 -0.4733179 -0.36875033 0.15442716 -0.5884586
-0.28564477 -0.4850917 0.16995133 0.1725208 0.4305052 -0.40848202 -0.53405404 -0.54147005
0.14795612 0.24020386 0.52879274 -0.25457418 -0.16418573 -0.22164571 0.44291043 -0.49983972
-0.5131591 -0.39161053 0.028366148 0.34087187 0.15172547 -0.47642177 -0.517838 -0.50572574
0.5159979 0.14668065 0.5996614 -0.7288804 -0.7699691 -0.63214225 0.50154066 -0.05222384
-0.5688728 0.052676845 0.044559374 0.38099536 0.31269658 -0.3095291 0.06169656 -0.09931008
0.37130332 0.23910236 0.36093533 -0.049929697 -0.18391569 -0.36498705 0.4767415 -0.2920287
-0.44855624 -0.6628222 0.6355799 0.6038055 0.4606209 -0.2426381 -0.55607605 -0.11302796
0.48375285 0.50991756 -0.020340292 -0.5137526 -0.36394587 0.095785074 0.44850156 -0.3194301
-0.23535207 -0.18934524 0.5134315 0.1379723 0.48223802 -0.51001406 -0.5458291 -0.5568444
0.5337417 0.46615213 0.12703934 -0.5281398 -0.5899616 -0.50565845 0.24079509 -0.2852193
-0.07360012 -0.20106629 0.13928902 0.45852453 0.5041989 -0.24144007 -0.44941485 -0.2066298
0.10814528 0.19079293 0.41300443 -0.19534943 -0.24604538 -0.29423857 0.53268164 -0.6219194
-0.22178715 -0.1767422 0.20351076 0.3178192 0.39932883 -0.38953215 -0.52979666 -0.36025336
-0.014871218 -0.015587281 -0.016059158 0.015871052 0.013196917 0.015308396 -0.016748825 0.017000949
0.014591321 0.018372228 -0.016056314 -0.013671304 -0.017449182 0.01881806 0.011855512 0.014185249
-0.01501348 -0.016852796 -0.016741844 0.01433575 0.013228886 0.015170607 -0.017128468 0.018508295
0.01273209 0.01971032 -0.016375652 -0.013390713 -0.019412488 0.023976473 0.011563237 0.014772303
-0.015119395 -0.016141588 -0.015755028 0.015337994 0.013588751 0.015549673 -0.01637718 0.016368492
0.015566432 0.017306201 -0.014926351 -0.013966343 -0.016748985 0.018723423 0.012150324 0.014376525
-0.01498257 -0.015810031 -0.01589073 0.015207766 0.013510347 0.015094223 -0.016863978 0.016360922
0.014536338 0.017018598 -0.014733465 -0.013892918 -0.01659926 0.018255576 0.012054757 0.014108929
-0.0148584945 -0.015808586 -0.015565819 0.015014817 0.0134902485 0.014960448 -0.015579379 0.016302705
0.0144124795 0.01751369 -0.01537431 -0.014212254 -0.01778212 0.019233424 0.011900221 0.014182323
-0.015023134 -0.015442996 -0.015933713 0.014633949 0.013244547 0.015019579 -0.016948733 0.017602665
0.014774978 0.017392395 -0.015413876 -0.013688017 -0.016298354 0.022373091 0.01183994 0.014679192
-0.014598178 -0.016080448 -0.015941529 0.014988896 0.013851109 0.015313021 -0.015838904 0.017588329
0.01455481 0.018120429 -0.014940677 -0.013590436 -0.017765116 0.020389408 0.012094209 0.014294873
-0.014964646 -0.01596688 -0.015655717 0.015790911 0.0132437125 0.014864287 -0.016903317 0.016965557
0.014550517 0.018314501 -0.015126667 -0.013618116 -0.017230816 0.02085469 0.011870625 0.013868728
-0.015930936 -0.016247943 -0.015920283 0.0153079275 0.013589614 0.015195576 -0.017212663 0.016673166
0.014987516 0.017764598 -0.015549068 -0.014010309 -0.017138856 0.019352544 0.012106693 0.014260416

Linear.bias f4 [2708]
00000000: 841f 02bd c63f 873d 11dd d83e eddc 373e
00000010: 8386 3e3e 50c6 9b3e 2748 a13e 5010 d4bc
00000020: 2fe8 05bd fc1c 333a 2e26 40bc d2bc a4bc
00000030: e331 bebc 2bdc c1bc 4335 b1bc 2de4 d03a
00000040: 2454 9e3b e016 b6bb e980 eabc 7b6a a6bc
00000050: a5a3 acbc d980 d4bc 7c6c 90bb b387 abbc
00000060: e526 70bc 60a2 94bc b6ce cabc ea75 74bc
00000070: d2b4 c9bc bbfe d1bc 83c1 8abc 8904 a0bc
00000080: efd7 453b e0ac b4bc d88d ff3b 2171 c1bc
00000090: 6148 77bc dee4 e5bc cb38 9ebc 819c b2bc
000000a0: 5e1c bdbc e4d3 8dbc adfa 80bc 7d95 90bc
000000b0: 6b9a 96bc 373c cbbc 677a 84bc 569c abbc
000000c0: 378c d2bc 63e1 d83b 3f84 14bd b313 f3bc
000000d0: 402a f1bb c87a 7fbc c33b 12bc 45d0 bbbc
000000e0: 3c5d b1bc 357f 93bc fe83 e1bc 567c 00bd
000000f0: 4153 aabc b542 cabc c043 2cbc d265 1a3c
00000100: 260c a2bc dfa5 13bb 0c9c 2cbd ed1d a3ba
00000110: 8c7e 98bc a5d3 7cbc 77e8 8ebc 8b66 dbbc
00000120: 3e4e 5cbc 030a a0bc e25a cabc 96aa 90bc
00000130: a01a b1bc 4a32 b6bc 0971 193b 88be 7cbc
00000140: 51c5 93bc c603 9abc 05c6 9ebc 3fe6 acbc
00000150: 46ce 47bc 8823 96bc ee89 94bc 7694 bfbc
00000160: 37f1 03bd c0df e0bc 7924 eebc 2338 efbc
00000170: 8d96 0fbd 3c6a a6bc 0812 a9bc 65fc c8bc
00000180: ad88 e8bc a66e 05bd 224e 97bc 8673 9cbc
00000190: aa3d a3bc 6071 93bc d3f7 86bc 2c1a bbbc
000001a0: 49c9 91bc e0a8 dbbc 001d a4bc 8ce3 97bc
000001b0: ec75 97bc 3525 acbc 268b 8dbc deab a0bc
000001c0: 41d8 e43b 2b43 7fbc c95b 413c 4f36 9dbc
000001d0: a6d4 1e3c fd3f b7bc add0 98bc da76 3b3c
000001e0: 8c33 803c e8d5 a5bc c4e3 b8bc 2470 8cbc
000001f0: 04e4 64bc 713c ffbc 6d9a 85bc 9fb4 5abc
00000200: e722 babc 95f9 a3bc 0036 00bc 215c c9bb
00000210: c45b 15bc 247b 99bc 763d 7cbc 31cf b9bc
00000220: 80c2 03bd 37d2 b2bc c857 a9bc 1836 d8bc
00000230: d9ab c0bc acaf adbc bdca 6cbc 090b 81bc
00000240: c87f 5039 1126 b9bc 36be c2bc fcbd cabc
00000250: db1e b4bc 6ba3 57bc 1ec3 04bd 873d dbbc
00000260: ca3e a3bc 8f87 abbc 4850 76bc 2dd7 d0bc
00000270: 78a2 52bc 8762 c3bc db30 97bc a745 c4bc
00000280: 5a94 a8bc 81bd b4bb 5abc 183b e639 3ebc
00000290: 09f5 8cbc aa99 573c 3b9b 99bc 2743 9ebc
000002a0: 8e59 41bc 99b1 b4bc 5687 a0bc ebe3 843c
000002b0: c086 f5bc 0f5e 88bc 5c7f 80bc ba2d babc
000002c0: 9978 a2bc 775c 84bc f8fb 9cbc 5404 0abc
000002d0: 89bf b3bc b2d5 dcbc 4edf bdbc 6be1 5fbb
000002e0: 2bba b0bc c1c0 84bd e1d4 c8bc 8bf5 a4bc
000002f0: 7978 07bd 3c8b d2bc d718 b0bc 6438 a2bc
00000300: 2223 b1bc eb54 843c 64ec 50bc de14 9dbc
00000310: 6af6 c0bb 861b b7bc aab8 51ba b386 663a
00000320: 745a a3bc 5600 b7bc 25dd 193c 82aa b2bc
00000330: a16a 623c ff05 8bbc b46c b7bc cd0b c7bc
00000340: 4684 773b 824f 3abd 5daa c2bc 1440 9abc
00000350: 6154 98bc e7e7 d1bc 9fce a3bc 3e1e 3fbc
00000360: 8253 d6bc e9fd 85bc 79ce 483a fe9b d93b
00000370: e8e6 08bc bdee aebc 3ab4 97bc fc64 acbc
00000380: 6abf dfbc e88d 02bc b769 b3bc c980 04bd
00000390: 042c 7bbc 01ba 96bc e65a a3bc 9b66 efbb
000003a0: b2b1 90bc 830a 20bc eff0 22bb a70a cfbc
000003b0: 7630 a6bc 3980 c7bc 90c7 cdbc e162 48bc
000003c0: 5e0a 9a3b 46f4 863b 0d77 b4bc 84dd 8839
000003d0: ecb9 1f3b 1a6f c9bc 2cea 6abc d640 a1bc
000003e0: 081a a73a 4703 e5bc 3216 bb3b 5534 b8bc
000003f0: b7f8 c3bc 1b86 5abc 23c7 10bc 8af2 e4bc
-0.031768337 0.06603961 0.4235616 0.1795537 0.18606 0.30424738 0.3150036 -0.025886685
-0.03269213 0.0006832627 -0.011727853 -0.020109568 -0.023217147 -0.023664555 -0.021631842 0.0015937142
0.0048318077 -0.005556926 -0.028625922 -0.020314446 -0.021074126 -0.025940346 -0.0044074636 -0.02093873
-0.014657711 -0.018143833 -0.02475677 -0.014920691 -0.024622355 -0.02563416 -0.016937977 -0.019533413
0.003018852 -0.02205509 0.0077988915 -0.023613514 -0.01509294 -0.028063234 -0.01931419 -0.021803143
-0.023084816 -0.017312951 -0.015744532 -0.017649407 -0.01838418 -0.024808986 -0.016171647 -0.02094857
-0.025701625 0.006618665 -0.036258932 -0.02967248 -0.007359773 -0.015593238 -0.008925381 -0.02292646
-0.021650903 -0.018004993 -0.02752876 -0.031368576 -0.020791652 -0.024690012 -0.0105142 0.00942369
-0.019781183 -0.0022529287 -0.042141005 -0.0012444832 -0.01861503 -0.015431319 -0.017444832 -0.026782295
-0.013446389 -0.019536024 -0.02470154 -0.017659467 -0.021619141 -0.022240777 0.0023413321 -0.015426286
-0.018038424 -0.018800627 -0.019381532 -0.021105884 -0.0121951755 -0.01832749 -0.018132176 -0.023386221
-0.032212462 -0.027450442 -0.029070126 -0.029201573 -0.035055686 -0.020314328 -0.02063848 -0.024534414
-0.028385485 -0.032576226 -0.018469874 -0.019098055 -0.019926865 -0.017998397 -0.016475594 -0.022839628
-0.017796176 -0.026813924 -0.02003336 -0.01854112 -0.018488847 -0.021013835 -0.017278265 -0.019613203
0.0069837873 -0.015579979 0.011801668 -0.019190935 0.009694254 -0.02236938 -0.018654192 0.011441911
0.01564958 -0.0202436 -0.022569545 -0.017143317 -0.013970379 -0.03115675 -0.016308988 -0.0133487275
-0.02272172 -0.02001647 -0.007825375 -0.006145016 -0.009116117 -0.018735476 -0.015395513 -0.022681804
-0.03216791 -0.021828754 -0.02067174 -0.026392981 -0.023519443 -0.021201931 -0.014452633 -0.015752332
0.00019884028 -0.02260116 -0.02377234 -0.024748795 -0.02198737 -0.0131615205 -0.03241264 -0.026762737
-0.019927401 -0.020938663 -0.015033789 -0.025493229 -0.012856118 -0.023850692 -0.018455913 -0.023958994
-0.020578552 -0.0055157547 0.0023305626 -0.011610484 -0.017206686 0.013159195 -0.018750777 -0.01931913
-0.011801137 -0.022057341 -0.019595783 0.016221961 -0.02997148 -0.016646413 -0.01568573 -0.022726882
-0.019832896 -0.016157372 -0.019163117 -0.0084238835 -0.021941917 -0.026957367 -0.023177769 -0.003416146
-0.021573147 -0.064820774 -0.024515571 -0.020136615 -0.033073876 -0.025701158 -0.02149622 -0.01980228
-0.021623198 0.016153773 -0.012751672 -0.01917499 -0.00588875 -0.022351991 -0.00080002344 0.00087938755
-0.019940592 -0.022339027 0.009391104 -0.02180982 0.013819368 -0.016970633 -0.0223907 -0.02429762
0.003776805 -0.04548598 -0.023762876 -0.018829383 -0.018594922 -0.025623275 -0.019995986 -0.011664925
-0.026162867 -0.016356425 0.00076601614 0.00664091 -0.008355834 -0.021354074 -0.018518556 -0.021044247
-0.027312953 -0.007968403 -0.021900995 -0.03234938 -0.015330318 -0.01839924 -0.019940805 -0.0073059327
-0.017662857 -0.009768131 -0.0024862846 -0.025273634 -0.02028678 -0.024353134 -0.025119573 -0.012230606
0.004700943 0.004118475 -0.022029424 0.00026104983 0.0024372293 -0.02458911 -0.0143380575 -0.019684236
0.0012748847 -0.027955664 0.005709433 -0.022485891 -0.023922307 -0.013337637 -0.00883654 -0.027947683
