output/best_GCN_model_cora.pkl (torch, 94512 bytes, 4 tensors)

conv1.bias f4 [16]
0	0x3db9bfa8	0.09069759
1	0x3ddae44f	0.10688078
2	0x3db9b5a7	0.090678506
3	0x3d5a068c	0.0532289
4	0x3da156a6	0.07877855
5	0x3d956e96	0.07296483
6	0x3de7fcfb	0.11327549
7	0x3d96b2ce	0.07358323
8	0x3de15166	0.11001854
9	0x3dc8b4f6	0.098001406
10	0x3d966f1b	0.073454104
11	0x3d57d298	0.052691072
12	0x3e020048	0.1269542
13	0x3dd8f2ac	0.10593161
14	0x3dc63347	0.09677749
15	0x3debfe45	0.115231074

conv1.lin.weight f4 [16, 1433]
0	0xbdb25aef	-0.087087505
1	0x3dac88af	0.08424508
2	0x3d1c1e1a	0.038114645
3	0x3e91d196	0.28480214
4	0xbf5bdd15	-0.8588422
5	0x3c533ff2	0.012893664
6	0x3ddd8688	0.108166754
7	0x3dafda55	0.085865654
8	0xbe8df26f	-0.27724025
9	0x3db88e6d	0.090115406
10	0x3d8d0846	0.06886344
11	0x3c77924c	0.0151105635
12	0xbe3eac02	-0.18620303
13	0x3d230a8e	0.039804988
14	0x3c15ba4e	0.009138657
15	0x3d90f72e	0.07078396
16	0xbde59ef9	-0.11211962
17	0x3d0e491a	0.034737684
18	0x3d2f1a00	0.042749405
19	0x3f67b005	0.9050296
20	0xbdc5d550	-0.09659827
21	0x3db0261a	0.08601017
22	0x3cb9ba5e	0.022671875
23	0xbdb489a1	-0.08815313
24	0x3c82d32a	0.015969831
25	0xbdbcf879	-0.0922708
26	0xbdbb53ec	-0.09146866
27	0xbe75cac8	-0.24003136
28	0xbd4213d8	-0.047382206
29	0x3db6561a	0.08903141
30	0xbe3bc843	-0.18338113
31	0xbd120115	-0.035645563
32	0x3d4e5b8b	0.05038027
33	0xbd4414d6	-0.047871433
34	0x3dcb0118	0.09912318
35	0x3c3d16c3	0.011541071
36	0x3c997fca	0.018737692
37	0x3cee1428	0.029062346
38	0x3f14d222	0.5813314
39	0x3cb8f4d2	0.022577677
40	0xbea53f4b	-0.3227485
41	0xbeebfe66	-0.46092528
42	0x3cdd6c09	0.027029054
43	0xbc03a6b0	-0.008035347
44	0x3d2dc5bf	0.042424913
45	0xbd579d08	-0.05263999
46	0x3cbbbda7	0.022917582
47	0xbd1c3715	-0.038138468
48	0xbd891e3f	-0.06695222
49	0xbe3466bc	-0.17617315
50	0xbdcf92ce	-0.10135423
51	0xbf498b4b	-0.7872817
52	0xbe24990f	-0.16074012
53	0x3dc63b5c	0.09679291
54	0xbea02723	-0.3127986
55	0x3cf73f69	0.030181604
56	0xbd98f338	-0.07468265
57	0x3e37e837	0.17959677
58	0xbdf7c4f5	-0.120981134
59	0x3daebc99	0.08532066
60	0xbe2c05c6	-0.16799077
61	0x3d47437c	0.048648342
62	0x3d95506e	0.07290731
63	0xbd3f29dd	-0.046670783
64	0xbe7cf3f7	-0.2470244
65	0x3e8e9333	0.2784668
66	0x3d1c1c66	0.03811302
67	0x3e1e83cc	0.15479964
68	0x3da237b0	0.07920778
69	0xbd4e4cdf	-0.05036628
70	0xbd8f2dce	-0.069911584
71	0xbd7b070b	-0.061286014
72	0x3d8d3416	0.068947
73	0x3e3e213f	0.1856737
74	0xbcdfee19	-0.027335213
75	0x3de94f06	0.11392026
76	0xbe348823	-0.17630057
77	0xbe08f61c	-0.13375133
78	0xbe97d55b	-0.29654965
79	0xbc997a6a	-0.01873513
80	0x3d423135	0.04741021
81	0xbe5e72ce	-0.21723482
82	0xbe2dcc8a	-0.16972557
83	0xbbe29067	-0.0069141868
84	0xbd735995	-0.059411604
85	0x3e984f67	0.2974808
86	0x3dccb1f2	0.09994878
87	0x3bc43a76	0.0059884144
88	0x3c6935df	0.014234035
89	0xbd6502f8	-0.055911034
90	0xbd0c4404	-0.034244552
91	0xbe92b76f	-0.28655574
92	0x3dca169d	0.098675944
93	0xbea0b8bd	-0.31390944
94	0xbccee9b2	-0.025257919
95	0xbda8bcdc	-0.08239147
96	0xbaade999	-0.001326847
97	0xbd19276d	-0.037391115
98	0x3e860a27	0.2617962
99	0x3f0ee81c	0.5582292
100	0xbe5fc710	-0.2185328
101	0x3d19af67	0.037520792
102	0xbe4083d4	-0.18800288
103	0x3e2cddc8	0.16881478
104	0xbd0994af	-0.03358906
105	0x3d3f91f2	0.046770044
106	0x3d639252	0.055559464
107	0x3bd4c4cb	0.006493186
108	0xbe05367f	-0.1300907
109	0x3d9ca277	0.07648175
110	0x3d893313	0.06699195
111	0x3d3226de	0.043494098
112	0xbd8b7aa8	-0.06810504
113	0x3c059c96	0.008155009
114	0x3dcd3a2d	0.10020862
115	0x3dc030cc	0.09384307
116	0xbd2df40b	-0.042469066
117	0x3d6c6ccf	0.057720955
118	0x3e6c9481	0.23103525
119	0x3c9a2daf	0.018820612
120	0xbd9423f6	-0.072334215
121	0xbd760f69	-0.06007329
122	0xbe51c998	-0.20487058
123	0x3e0be1e8	0.13660395
124	0x3dd0f65b	0.102032386
125	0xbec4770d	-0.3837208
126	0x3c7b4132	0.015335368
127	0xbdde806b	-0.108643375
128	0xbc908a84	-0.017644174
129	0xbe1e6033	-0.15466385
130	0x3d89f968	0.067370236
131	0x3d36693f	0.044533964
132	0x3ef1b945	0.47211662
133	0xbe5e5b2f	-0.21714471
134	0x3dad868e	0.0847293
135	0xbeb4f45b	-0.35342678
136	0x3d9bfc62	0.076164976
137	0xbd9245d1	-0.07142223
138	0x3d5380b4	0.051636413
139	0x3cfddf5e	0.030990299
140	0x3f4379d7	0.7635779
141	0x3c940af4	0.01807163
142	0xbbce4b60	-0.0062956065
143	0x3dcb9514	0.09940544
144	0xbdbee49a	-0.09320946
145	0xbd58cbfe	-0.052928917
146	0x3e06367d	0.13106723
147	0xbde26be8	-0.11055738
148	0x3da95500	0.082681656
149	0x3e838d8a	0.25693923
150	0x398bd138	0.00026668026
151	0xbe45dd3f	-0.1932268
152	0x3bf91211	0.0076010306
153	0xbdc1c6e9	-0.09461767
154	0x3c667355	0.014065583
155	0xbd133bbd	-0.035945643
156	0xbd2bce4b	-0.041944783
157	0x3e3afbe4	0.18260151
158	0x3d125e8d	0.035734702
159	0x3cf2c9ea	0.029637296
160	0x3dfc3d19	0.12316341
161	0x3b224eb5	0.0024766151
162	0xbd472365	-0.04861774
163	0x3e467024	0.19378716
164	0x3d6c3898	0.05767116
165	0x3cdeb563	0.027186101
166	0x3c474b5d	0.012163964
167	0x3e5503ae	0.20802185
168	0xbd9207c1	-0.07130385
169	0xbde60e3a	-0.11233182
170	0xbda97196	-0.08273618
171	0x3e04755a	0.12935391
172	0xbe39f4e6	-0.18159828
173	0xbca1302f	-0.019676296
174	0xbd7b205c	-0.061310157
175	0x3ca91c27	0.020643307
176	0x3db75dfc	0.08953473
177	0x3e0d8c98	0.13823164
178	0xbd368c0b	-0.04456715
179	0xbe57ae8f	-0.21062683
180	0x3d2f98e3	0.042870414
181	0x3c7642f6	0.015030613
182	0xbdde1192	-0.10843195
183	0xbc520e0e	-0.012820734
184	0xbcd3e70e	-0.025867011
185	0x3ac0bf1e	0.0014705395
186	0xbe9f384a	-0.31097633
187	0x3e4c6927	0.19961987
188	0xbea4d390	-0.3219266
189	0xbe0023d6	-0.1251367
190	0x3d43d56a	0.04781095
191	0xbde27713	-0.11057868
192	0xbe37ac03	-0.17936711
193	0xbde508ca	-0.11183317
194	0x3c930ac5	0.017949471
195	0xbd4db2bc	-0.050219283
196	0x3e5f5f86	0.21813783
197	0xbe3befdc	-0.18353218
198	0x3cbd39c0	0.023098826
199	0x3cd3cf58	0.025855705
200	0xbda837aa	-0.08213742
201	0x3d54799c	0.05187379
202	0xbcae67ad	-0.02128967
203	0x3ef69d00	0.48166656
204	0x3dbfdeb4	0.09368649
205	0xbea11704	-0.31462872
206	0x3cfbb133	0.030724144
207	0xbddc1d19	-0.107477374
208	0x3e866d10	0.26255083
209	0xbb96072a	-0.0045784907
210	0xbc56b6a3	-0.013105067
211	0xbf086057	-0.53272
212	0xbe656bf7	-0.22404467
213	0x3d1d3a32	0.038385577
214	0xbbf9ce6b	-0.007623484
215	0xbd0cb4c6	-0.034352086
216	0x3da5de9e	0.080991015
217	0x3d8897de	0.06669591
218	0x3e6693b2	0.22517279
219	0x3dfbaa09	0.12288291
220	0x3df730f4	0.12069884
221	0x3c63fa5a	0.013914669
222	0xbe0a8968	-0.13528979
223	0x3e1f5fb3	0.1556385
224	0x3e051db8	0.12999618
225	0xbdc64001	-0.096801765
226	0xbd078fe3	-0.033096205
227	0x3d7809a5	0.060556073
228	0xbe901f19	-0.28148726
229	0x3d284d81	0.04108954
230	0x3e1aecab	0.15129344
231	0x3d92fc1c	0.07176992
232	0x3cf16bb5	0.029470304
233	0xbe2c5c9f	-0.16832207
234	0xbe854273	-0.2602726
235	0xbcfc5dd5	-0.030806461
236	0xbd5feea2	-0.054670937
237	0xbcdf9a3c	-0.027295224
238	0x3f29159c	0.660486
239	0x3d23cc7a	0.039989926
240	0x3e1085b2	0.141135
241	0x3e0e84a5	0.13917787
242	0xbb91f4ea	-0.004454245
243	0x3d12208b	0.035675567
244	0xbc87f325	-0.016595433
245	0xbe30ae8b	-0.17254083
246	0xbd4cd52c	-0.050007984
247	0x3ac53692	0.001504617
248	0x3c4acce8	0.012377955
249	0x3a77cd24	0.00094528706
250	0x3bd26327	0.0064205113
251	0xbdf42662	-0.119213834
252	0xbd3e63f0	-0.046482027
253	0xbcf31099	-0.029671
254	0x3d9d3693	0.07676425
255	0xbdb6291f	-0.08894562

conv2.bias f4 [7]
0	0x3ec7dfb5	0.39037862
1	0xbf05a262	-0.522009
2	0xbda2e730	-0.07954252
3	0xbf3b61f9	-0.7319637
4	0xbf1cdb4c	-0.6127212
5	0x3f75c6b9	0.9600635
6	0x3ed9e0b1	0.42554238

conv2.lin.weight f4 [7, 16]
0	0xc01a4518	-2.4104671
1	0xc03498d0	-2.821827
2	0x40177aaa	2.3668618
3	0xc02652d1	-2.5988047
4	0xc0500c47	-3.2507493
5	0xc01c8cdd	-2.4460976
6	0x4044c857	3.0747278
7	0x40186791	2.3813212
8	0xc01a766b	-2.4134777
9	0xc0275e08	-2.6151142
10	0x404728e4	3.1118708
11	0x400f2488	2.2366047
12	0xc0112899	-2.268103
13	0xbfb7d07b	-1.4360498
14	0x3fa82e5f	1.3139151
15	0x404cef51	3.2021067
16	0x4039d5a9	2.9036658
17	0xbfee1f72	-1.8603346
18	0xc0241c18	-2.5642147
19	0x4032aadc	2.7916784
20	0x404aaf5f	3.1669538
21	0x4056de8a	3.3573327
22	0xbffc4b86	-1.9710548
23	0xbff9efd1	-1.9526311
24	0xbfe89dcf	-1.8173159
25	0xbfc5fd9c	-1.546802
26	0x4054ef43	3.3271034
27	0x4035b25b	2.839011
28	0xbfb3850c	-1.4024978
29	0xbfa66f0e	-1.3002641
30	0x401e1daf	2.4705617
31	0xbffdf4d5	-1.9840342
32	0x4065f792	3.5932355
33	0xbfeec1e7	-1.8652924
34	0xc02fa837	-2.744642
35	0x40390210	2.890751
36	0xc038677d	-2.8813164
37	0xc017d57b	-2.3724048
38	0xc00923a7	-2.142801
39	0x4028e9b3	2.6392639
40	0xbffd0f1c	-1.9770236
41	0x405c4765	3.4418576
42	0xc01b362d	-2.4251816
43	0xc01a6ac9	-2.4127676
44	0x405390a3	3.305703
45	0xbfb282f2	-1.3946211
46	0x40464403	3.097901
47	0xc003cbf8	-2.0593243
48	0x402f2127	2.7363985
49	0x401eeab3	2.483075
50	0x4008a926	2.135324
51	0xc08ab5e3	-4.334703
52	0x3f2d992e	0.6781186
53	0x4053e25c	3.3106909
54	0x402e537b	2.7238452
55	0xc08d72a2	-4.4202433
56	0x402dd773	2.716275
57	0x4032f5fe	2.7962642
58	0x4049eb6e	3.1549945
59	0xc099189a	-4.784253
60	0x40183f1e	2.3788524
61	0x4068042a	3.6252542
62	0x400e5a66	2.2242675
63	0x402acc84	2.6687326
64	0xc0281c57	-2.6267297
65	0x4024a44d	2.5725281
66	0xc06c60a1	-3.6933978
67	0x401ce324	2.4513636
68	0x3feec48a	1.8653729
69	0xc02be9b3	-2.6861389
70	0x4041ad08	3.026186
71	0x3faaa0a4	1.3330274
72	0x40413117	3.0186212
73	0xc033d66f	-2.809963
74	0xc0300d9d	-2.750831
75	0x40077f57	2.1171472
76	0x402bb4a1	2.6828997
77	0x406f99e9	3.743769
78	0xc050cf37	-3.2626474
79	0x403eab3c	2.9792013
80	0xc009fbbb	-2.1559894
81	0x404a44c8	3.160448
82	0x3ff6d4aa	1.928365
83	0xc013f419	-2.3117735
84	0x40254352	2.582234
85	0xc0089d1e	-2.1345897
86	0xc02c5415	-2.692632
87	0xc00e43aa	-2.22288
88	0xc0300f93	-2.7509506
89	0x4033735b	2.8039157
90	0xc01bda0a	-2.435183
91	0x40047d63	2.070153
92	0xc024b308	-2.5734272
93	0xc000919d	-2.0088875
94	0xc04144cf	-3.0198247
95	0xc0298640	-2.648819
96	0xc000bf3b	-2.0116718
97	0xbfd5c85a	-1.6701767
98	0x4024da3b	2.5758197
99	0x3f8c17d4	1.0944772
100	0xc003fb43	-2.0622108
101	0x4045ce09	3.0907004
102	0xc000245d	-2.0022194
103	0x40135023	2.3017662
104	0x404e25cc	3.221057
105	0xc006567b	-2.0990283
106	0xbfff8d63	-1.9965023
107	0xc008f977	-2.1402261
108	0xc008aaa0	-2.1354141
109	0xbfa4b4cc	-1.2867675
110	0xc0329aec	-2.7907057
111	0xc00731d3	-2.112416
