output/best_GCN_model_cora_GCN.pkl (torch, 94608 bytes, 4 tensors)

conv1.bias f4 [16]
0	0x3df39641	0.11893893
1	0x3e0a1b22	0.13486913
2	0x3decb96e	0.115588054
3	0xbcfd1612	-0.030894313
4	0x3e10e322	0.14149144
5	0x3db393b2	0.08768405
6	0x3e061c12	0.13096645
7	0xbd31bb5a	-0.043391563
8	0x3e2032fa	0.15644446
9	0x3df9db9f	0.122000925
10	0x3dae56d6	0.085126564
11	0x3dc27cfc	0.09496495
12	0x3e148349	0.14503206
13	0x3e121ae8	0.14268076
14	0xbc9b9d47	-0.018995894
15	0x3e0c3d8b	0.13695352

conv1.lin.weight f4 [16, 1433]
0	0xbe26ae39	-0.16277398
1	0x3df55781	0.11979581
2	0x3dd330d4	0.103120476
3	0x3e86eab7	0.26350948
4	0xbf89e553	-1.0773109
5	0x3c9f6217	0.019455953
6	0x3e59561b	0.21224253
7	0x3dfafdb0	0.12255418
8	0xbe29e0a6	-0.16589603
9	0x3e114c0c	0.14189166
10	0x3db8bc94	0.090203434
11	0x3cf8a804	0.030353554
12	0xbeb69e79	-0.3566778
13	0x3e0f540f	0.1399691
14	0x3db948c6	0.090470836
15	0xbbf9f1c4	-0.0076276977
16	0xbb8afa18	-0.0042412393
17	0x3b497403	0.0030739314
18	0x3b9d1a25	0.0047943764
19	0x3fd24621	1.6427652
20	0xbd100ae6	-0.035166644
21	0x3e091e02	0.13390353
22	0x3cc30b6c	0.023809157
23	0xbd225e75	-0.039640862
24	0xbbdb0f7e	-0.0066851964
25	0xbe7b1817	-0.24520908
26	0xbe715c37	-0.23570333
27	0xbe3af241	-0.18256475
28	0xbcf6c885	-0.030124912
29	0x3d0e9261	0.034807567
30	0xbe7fc502	-0.24977496
31	0xbc80bd1e	-0.015715178
32	0x3cf62eca	0.030051608
33	0xbd5c7a3c	-0.05382751
34	0x3e14bc37	0.14524923
35	0x3d0ad246	0.03389194
36	0x3cacf7be	0.021114226
37	0x3d009b11	0.031397883
38	0x3f3f9c50	0.7484789
39	0x3dc1c215	0.09460846
40	0xbedb3e77	-0.42821094
41	0xbf1124a5	-0.5669654
42	0x3da1cd6b	0.079005085
43	0x3b807a61	0.0039208387
44	0x3c5c5706	0.013448482
45	0xbce33fb4	-0.027740337
46	0x3d23fcf9	0.040036175
47	0xbd8487d3	-0.06471219
48	0xbdd37f77	-0.10327046
49	0xbe29ffe6	-0.16601524
50	0xbe5431c9	-0.20722117
51	0xbf1bf853	-0.6092579
52	0xbec62a13	-0.38703975
53	0x3e294cf0	0.16533256
54	0xbeacaa54	-0.337237
55	0x3d256740	0.04038167
56	0xbdcb45c6	-0.099254176
57	0x3e45401a	0.19262734
58	0xbe383295	-0.17988046
59	0x3de5e7a7	0.11225825
60	0xbe2befed	-0.16790743
61	0x3e0018f2	0.12509516
62	0xbb67c368	-0.0035364274
63	0xbd9aeaae	-0.07564293
64	0xbe996c33	-0.29965362
65	0x3e8d4870	0.27594328
66	0x3dc340dc	0.09533855
67	0x3e65caad	0.22440596
68	0x3d2b7086	0.041855358
69	0xbc4d7f33	-0.012542534
70	0xbd3980bc	-0.045288786
71	0xbde514fa	-0.111856416
72	0x3d83a6da	0.06428309
73	0x3e771e64	0.24132687
74	0xbce4b97b	-0.027920475
75	0x3e37fafc	0.17966837
76	0xbe37290a	-0.17886749
77	0xbdc05d57	-0.09392803
78	0xbea8082d	-0.32818738
79	0xbca1ffe6	-0.019775342
80	0x3bd8e56c	0.006619146
81	0xbe9313f7	-0.2872617
82	0xbe809bfb	-0.25119004
83	0xbd4cc553	-0.04999287
84	0xbdb8b9c3	-0.09019806
85	0x3e9d0ec5	0.3067533
86	0x3c5f5572	0.013631212
87	0x3ae7a7bc	0.001767389
88	0xbcb1f6db	-0.021724155
89	0xbd2c86b0	-0.042120636
90	0xbd05fb4d	-0.032710362
91	0xbe9ca211	-0.30592397
92	0x3e132563	0.1436973
93	0xbec8d082	-0.3922158
94	0x3d8d44f6	0.06897919
95	0xbdb3a822	-0.08772303
96	0xb96b6218	-0.00022447889
97	0x3c8e28b2	0.01735339
98	0x3e2af6c7	0.166957
99	0x3f52d25f	0.8235225
100	0xbde347fc	-0.11097714
101	0x3c951583	0.018198734
102	0xbde83be8	-0.11339551
103	0x3e2bf917	0.16794239
104	0x3dbd27a8	0.092360795
105	0x3c8e7c8e	0.017393377
106	0x3c788534	0.015168477
107	0xbce6553f	-0.02811682
108	0xbe00c3fd	-0.12574764
109	0x3d6abacb	0.057307046
110	0x3d98ffdd	0.07470677
111	0x3dfa7a24	0.12230328
112	0xbde375d9	-0.11106462
113	0x3ce2b39d	0.027673537
114	0x3dabdeec	0.08392128
115	0x3dc29432	0.09500922
116	0xbc589802	-0.013219835
117	0xba9abbe8	-0.0011805268
118	0x3eaee193	0.34156474
119	0xbc969a43	-0.018384105
120	0xbda315e1	-0.079631574
121	0xbd1fc26e	-0.039003782
122	0xbe8b4345	-0.2719976
123	0x3d7da020	0.061920285
124	0x3e267542	0.16255668
125	0xbe8d1aea	-0.27559596
126	0x3a43c4b4	0.0007467971
127	0xbe4c3528	-0.19942153
128	0x3c533319	0.012890601
129	0xbe18b667	-0.14913331
130	0x3e082aa6	0.13297519
131	0x3dcf7cd3	0.1013123
132	0x3efba577	0.49149677
133	0xbeac41a5	-0.33643833
134	0x3cd0cbab	0.025487741
135	0xbe247ae8	-0.1606251
136	0x3dd89a39	0.10576291
137	0x3d200276	0.039064847
138	0x3cfabedd	0.030608589
139	0x3db02d23	0.08602359
140	0x3f997c83	1.1991123
141	0x3c49a5be	0.012307582
142	0x3bb8ba0d	0.0056374134
143	0x3c2f6321	0.0107047865
144	0x3d042765	0.032264132
145	0xbd6871a9	-0.05674902
146	0x3e3925f8	0.1808089
147	0xbe23b772	-0.15987948
148	0x3dcb24e9	0.099191494
149	0x3eca6276	0.39528245
150	0xbdae7bb9	-0.08519692
151	0xbe2e7ce9	-0.17039837
152	0xbc230ea3	-0.00995222
153	0x3c59750d	0.013272536
154	0xbd958640	-0.07300997
155	0xbd0ffc82	-0.03515292
156	0xbd74ca38	-0.059763163
157	0x3df934cb	0.121682726
158	0x3d3eb5f4	0.046560243
159	0x3d12f5e1	0.03587902
160	0x3d752dee	0.059858255
161	0xbc55ccc7	-0.013049311
162	0xbbc8714a	-0.0061170207
163	0x3e2892a0	0.16462183
164	0x3d079577	0.033101525
165	0x3cb240fc	0.021759503
166	0x3c567f09	0.013091811
167	0x3ea22b90	0.3167386
168	0x3d9a661c	0.07539007
169	0xbe21dc1c	-0.15806621
170	0xbde69b72	-0.112601176
171	0x3dd7e20a	0.105411604
172	0xbdc79218	-0.09744662
173	0x3c4b9582	0.012425782
174	0xbdd3c75a	-0.10340758
175	0xbc54e16c	-0.012993198
176	0x3d7908d9	0.060799453
177	0x3ddb3752	0.10703911
178	0xbd4de9c9	-0.050271783
179	0xbe8e5ac3	-0.2780362
180	0x3c2db43b	0.010602052
181	0x3d4de211	0.05026442
182	0xbe1b8fca	-0.1519157
183	0xbd6b6bb1	-0.05747575
184	0xbd7946d7	-0.060858574
185	0xbd3742c0	-0.044741392
186	0xbec21f57	-0.37914535
187	0x3e386c64	0.18010098
188	0xbedb41da	-0.42823678
189	0xbe0795e5	-0.13240774
190	0x3cebd141	0.028786303
191	0xbe157142	-0.14593986
192	0xbda7cbc0	-0.08193159
193	0xbe29cefc	-0.16582865
194	0x3c3846ce	0.01124735
195	0xbd84ad9a	-0.06478424
196	0x3e95a534	0.29227602
197	0xbe5e3e0c	-0.21703357
198	0x3ce9df2e	0.028548803
199	0x3d0faff7	0.035079923
200	0xbe49299c	-0.19644779
201	0x3d4e53f9	0.05037305
202	0xbcedcb3e	-0.029027577
203	0x3ec2b9bd	0.38032332
204	0xbc3336b8	-0.010938339
205	0xbf0a580e	-0.5404061
206	0x3d3aaedf	0.045576926
207	0x3cb0a35d	0.021562273
208	0x3e9d8dae	0.30772156
209	0x3d91561f	0.070965044
210	0x3cfd3bba	0.030912269
211	0xbef8b904	-0.48578656
212	0xbd4b7236	-0.049669467
213	0x3da67e6b	0.08129581
214	0x3c8fde58	0.017562076
215	0xbcab4c2e	-0.020910349
216	0x3d7a0632	0.061041065
217	0xbcb0ed02	-0.02159739
218	0x3e652215	0.22376283
219	0x3e2a12ce	0.16608736
220	0x3e2bf27f	0.16791724
221	0x3afb8107	0.0019188233
222	0xbdd82e32	-0.10555686
223	0x3d8c36c2	0.06846382
224	0x3dad9004	0.084747344
225	0xbd31fccc	-0.043453977
226	0xbe055684	-0.13021284
227	0x3da85bfa	0.08220668
228	0xbe7765e6	-0.24159965
229	0x3dab49be	0.083636746
230	0x3e63e47e	0.22255132
231	0xbdb65639	-0.089031644
232	0x3d3a7c02	0.04552842
233	0xbe8c1304	-0.27358258
234	0xbed1acc7	-0.4095213
235	0xbcac02b3	-0.02099738
236	0xbdb7f8ad	-0.08982978
237	0xbcaf3b5c	-0.02139061
238	0x3f177282	0.591591
239	0x3d17590c	0.036950156
240	0x3e0aeb95	0.1356643
241	0x3dbb7785	0.09153656
242	0x3c91f6a4	0.017817803
243	0xbd826d43	-0.06368496
244	0xbdf2069f	-0.11817669
245	0xbe2326cd	-0.1593277
246	0xbd2240e2	-0.03961266
247	0x3ba79773	0.0051144897
248	0xbd8591c1	-0.06521941
249	0xbb05500e	-0.0020341906
250	0x3d99ea12	0.075153485
251	0xbd018377	-0.031619515
252	0xbb0f4f29	-0.0021867251
253	0xbd5723ca	-0.052524365
254	0x3e0e6183	0.13904385
255	0xbdeeea05	-0.116657294

conv2.bias f4 [7]
0	0x3d9c7883	0.07640173
1	0x3ea9ae4b	0.33140787
2	0x3f97e398	1.1866331
3	0xbf264e5c	-0.64963317
4	0xbf831a46	-1.0242393
5	0x3f1fdc60	0.6244564
6	0x3f0594ec	0.5218036

conv2.lin.weight f4 [7, 16]
0	0xbfdb1448	-1.7115564
1	0xc02593d9	-2.587149
2	0x3ff99965	1.9499937
3	0xb318f552	-3.5613375e-08
4	0xc015918a	-2.337008
5	0xc0077c2e	-2.1169543
6	0x401eac3d	2.4792626
7	0x34975b1e	2.8192238e-07
8	0x3f7245f4	0.9463799
9	0xc01d27a1	-2.4555438
10	0x401ef5ca	2.4837518
11	0x3feb18df	1.8366965
12	0xc00aecde	-2.1707072
13	0x3f00a3e3	0.5025007
14	0xb72c4d98	-1.0270065e-05
15	0x400e7c6c	2.226344
16	0x4028a7b6	2.6352363
17	0xbfd8b289	-1.6929485
18	0xc032243c	-2.7834616
19	0xb214478e	-8.6310035e-09
20	0x400bfed8	2.1874294
21	0x402be2cb	2.6857173
22	0xbfea64b0	-1.8311977
23	0x346e81c8	2.2212691e-07
24	0xc00fff9d	-2.2499764
25	0xbff57ee6	-1.9179351
26	0xbfbe8274	-1.4883561
27	0x3fe7dfe8	1.8115206
28	0xbffec2dd	-1.9903218
29	0xc0110601	-2.2659914
30	0xb4e5156d	-4.2670163e-07
31	0xbffb3ac1	-1.9627305
32	0x402461d5	2.5684712
33	0xc00219dd	-2.0328286
34	0xc01cf89b	-2.4526737
35	0xb353ebfc	-4.9341892e-08
36	0xc021cfc3	-2.5283058
37	0xc015c62e	-2.340221
38	0xbfffc9b4	-1.998343
39	0x32adeed1	2.0248452e-08
40	0xc00ec33a	-2.2306657
41	0x400b0cc2	2.1726537
42	0xbff76f0c	-1.9330764
43	0xc02203b2	-2.5314755
44	0x4029bb83	2.6520698
45	0xc005a0c3	-2.087937
46	0xb44648cf	-1.8466675e-07
47	0xc003bc04	-2.0583506
48	0x3fac4f4f	1.3461703
49	0x4000942f	2.0090444
50	0x3fbf1fd2	1.4931586
51	0x33d363f0	9.843632e-08
52	0x3fa7ece1	1.3119165
53	0x400d2956	2.205648
54	0x3f9b2c47	1.2122887
55	0xb50a30e6	-5.148016e-07
56	0x3fb78ce0	1.4339867
57	0x3ffa7f13	1.957003
58	0x40085075	2.1299107
59	0xc021c5f2	-2.5277066
60	0x3f3e1c60	0.74262047
61	0x3ff8c218	1.9434233
62	0x35c8bfbc	1.4956963e-06
63	0x3fc382a0	1.5274239
64	0xbf3a137d	-0.72685987
65	0x400e5007	2.2236345
66	0xc030debb	-2.7635944
67	0x33cb64d6	9.471266e-08
68	0x4008045a	2.1252656
69	0xc027e762	-2.6234975
70	0x40139c60	2.3064194
71	0x32310eb5	1.03061e-08
72	0x4007fa11	2.1246378
73	0xc01696e3	-2.3529594
74	0xc02871e6	-2.6319518
75	0x40106fc1	2.256821
76	0x40151c8e	2.3298678
77	0x40184c5f	2.3796613
78	0x34dcd93b	4.113625e-07
79	0x4012fd88	2.2967243
80	0xc0205e54	-2.5057573
81	0xbfdf5731	-1.7448484
82	0x40180b55	2.3756917
83	0x31b1bf64	5.1731366e-09
84	0x401caa6a	2.4479012
85	0xc029b290	-2.6515236
86	0xbfece114	-1.8506188
87	0x33c06ef8	8.960882e-08
88	0xc0198068	-2.3984623
89	0x3ffe97a9	1.9890033
90	0xc004a2d7	-2.072439
91	0x3ff5430d	1.9161087
92	0xc017fdcd	-2.3748658
93	0xc009c11a	-2.152411
94	0xb489e370	-2.568372e-07
95	0xbff85736	-1.9401615
96	0xc00987fa	-2.1489244
97	0xbf7a449c	-0.9776094
98	0x3dd8457a	0.105601266
99	0xb4449d7c	-1.8311215e-07
100	0xc0198aa0	-2.399086
101	0x3e8b2ff1	0.27185014
102	0xc010a5f0	-2.260128
103	0xb3d4fcfc	-9.918037e-08
104	0x3ffb4d82	1.9633029
105	0xc001d87f	-2.0288389
106	0xbfed4e6b	-1.8539556
107	0x400ff5a8	2.2493687
108	0xbf156d68	-0.58370066
109	0xbf0dfb83	-0.554619
110	0xb36975ac	-5.4356562e-08
111	0xbfe2aa46	-1.7708213
