output/best_GCN_model_cora_GAT.pkl (torch, 372928 bytes, 8 tensors)

conv1.att_src f4 [1, 4, 16]
0	0x3e996210	0.29957628
1	0xbe958262	-0.29201037
2	0xbed85b17	-0.42256996
3	0x3ee4465f	0.4458494
4	0xbe61585a	-0.2200636
5	0xbe320cac	-0.17387646
6	0xbf02d43e	-0.51105106
7	0x3dd81abc	0.10551974
8	0x3be1d278	0.006891545
9	0x3dfd1b6e	0.123587474
10	0xbc6168a0	-0.013757855
11	0xbe4959a1	-0.19663097
12	0x3ee21921	0.44159797
13	0xbecc15be	-0.39860338
14	0xbee74b50	-0.45174646
15	0x3e572e26	0.21013698
16	0xbe0cdd88	-0.13756382
17	0xbe15885a	-0.14602795
18	0xbe842479	-0.25809076
19	0xbe085926	-0.13315257
20	0x3eb2457f	0.34818646
21	0x3f052e52	0.52023804
22	0xbf0866b9	-0.5328174
23	0xbf089e09	-0.5336614
24	0xbe96a172	-0.29420048
25	0x3d3c32b4	0.04594679
26	0x3ee6eb4a	0.45101386
27	0x3ec63c03	0.3871766
28	0x3e91bd16	0.28464574
29	0xbe84bb0f	-0.25923964
30	0xbef88ae0	-0.48543453
31	0x3ef4a221	0.47779945
32	0xbd8fedcc	-0.07027778
33	0x3e8fd432	0.2809158
34	0xbeb4278f	-0.3518643
35	0x3eb96b0e	0.3621449
36	0xbeb5c2ab	-0.35500082
37	0x3e57e59c	0.21083683
38	0xbf09a193	-0.5376217
39	0xbe23a9c2	-0.15982726
40	0x3ed39273	0.4132267
41	0xbe2c5449	-0.16829027
42	0xbd4979e2	-0.049188502
43	0xbea04fdb	-0.31310925
44	0xbea7e6da	-0.32793313
45	0xbe44c854	-0.19217044
46	0x3ead0ad1	0.33797315
47	0x3dd6d5b3	0.10489979
48	0xbea0bfb9	-0.31396273
49	0x3efc2e7d	0.49254218
50	0x3f0543f4	0.52056813
51	0xbe96f097	-0.2948043
52	0x3f01dd84	0.5072863
53	0x3ebbdcc2	0.36691862
54	0xbf097088	-0.53687334
55	0xbe6f4e0b	-0.23369615
56	0xbeaef653	-0.34172305
57	0xbed8f553	-0.42374668
58	0x3d783d27	0.060605194
59	0xbf02358f	-0.50862974
60	0x3f08f910	0.5350504
61	0x3d862d68	0.06551629
62	0xbe3d9df0	-0.1851728
63	0xbee78c2c	-0.4522413

conv1.att_dst f4 [1, 4, 16]
0	0x3d2bd4c6	0.041950963
1	0xbd31ead8	-0.043436855
2	0x3da2c590	0.07947838
3	0x3ecaf12e	0.3963713
4	0xbe9a66d5	-0.3015658
5	0xbe796da7	-0.24358235
6	0xbed796d1	-0.4210725
7	0xbdf3657d	-0.11884592
8	0x3d1eb584	0.038747326
9	0x3ee427ae	0.44561523
10	0x3e880fce	0.26574558
11	0x3eabd9f7	0.3356473
12	0x3f02dce6	0.51118314
13	0xbdf88b0a	-0.121358946
14	0xbed51b11	-0.41622213
15	0x3e0b869c	0.13625568
16	0x3da50718	0.08057994
17	0x3ead6911	0.33869222
18	0xbe85b27b	-0.26112732
19	0xbeea0ce4	-0.4571296
20	0xbefe8315	-0.49709383
21	0x3df9385a	0.12168951
22	0xbda2776a	-0.07932933
23	0x3da1640b	0.0788041
24	0xbe081b34	-0.13291627
25	0x3ef9fdc1	0.4882641
26	0x3f04f62e	0.5193814
27	0x3ef7b561	0.4838057
28	0xbdfa0c5f	-0.12209391
29	0x3e8b6648	0.27226472
30	0xbe6f338e	-0.2335951
31	0xbed792f3	-0.421043
32	0xbea0f132	-0.31434017
33	0x3ebcffb5	0.3691384
34	0x3f07ccc6	0.53046834
35	0x3edb51b7	0.4283578
36	0x3eac2299	0.33620146
37	0x3d88ba9a	0.066762164
38	0xbe0c66cc	-0.13711089
39	0xbcb76ed4	-0.022391714
40	0xbd9bb156	-0.076021835
41	0x3e4441d6	0.1916574
42	0x3eb2e01a	0.349366
43	0xbe7b3fe6	-0.24536094
44	0xbec2731b	-0.37978444
45	0x3ec37159	0.38172415
46	0x3e946bb8	0.28988433
47	0x3e403c97	0.18773113
48	0xbe3709e8	-0.17874873
49	0x3e302e11	0.17205073
50	0xbe46f056	-0.19427618
51	0x3d19b953	0.037530255
52	0x3ef5516d	0.47913685
53	0xbeff7ec3	-0.499014
54	0x3e4bbcd7	0.19896255
55	0x3ebb618c	0.3659786
56	0x3e35268f	0.1769049
57	0xbe7a51f6	-0.24445328
58	0x3eb56cc6	0.3543455
59	0xbeae93dd	-0.34097186
60	0x3afac3a8	0.0019131796
61	0xbde3de44	-0.11126378
62	0x3e0441fa	0.12915793
63	0x3e398486	0.1811696

conv1.bias f4 [64]
0	0x3c23d705	0.009999995
1	0x3c23d705	0.009999995
2	0x3c23d703	0.009999993
3	0x3c23d708	0.009999998
4	0x3c23d705	0.009999995
5	0x3c23d707	0.009999997
6	0xbc23d706	-0.009999996
7	0x3c23d6f0	0.009999976
8	0x3c23d6ec	0.009999972
9	0x3c23d707	0.009999997
10	0x3c23d701	0.009999991
11	0x3c23d708	0.009999998
12	0x3c23d6fc	0.009999987
13	0x3c23d706	0.009999996
14	0x3c23d706	0.009999996
15	0x3c23d706	0.009999996
16	0xbc23d68c	-0.009999882
17	0x3c23d708	0.009999998
18	0xbc23d700	-0.00999999
19	0xbc23d706	-0.009999996
20	0xbc23d702	-0.009999992
21	0xbc23d701	-0.009999991
22	0x3c23d6fc	0.009999987
23	0x3c23d6fe	0.009999989
24	0x3c23d708	0.009999998
25	0x3c23d701	0.009999991
26	0xbc23d705	-0.009999995
27	0x3c23d66f	0.009999855
28	0x3c23d706	0.009999996
29	0x3c23d707	0.009999997
30	0xbc23d707	-0.009999997
31	0xbc23d709	-0.009999999
32	0xbc23d5d1	-0.009999708
33	0x3c23d707	0.009999997
34	0x3c23d6da	0.009999955
35	0xbc23d706	-0.009999996
36	0x3c23d705	0.009999995
37	0xbc23d706	-0.009999996
38	0xbc23d707	-0.009999997
39	0x3c23d709	0.009999999
40	0xbc23d6f8	-0.009999983
41	0x3c23d708	0.009999998
42	0x3c23d708	0.009999998
43	0xbc23d707	-0.009999997
44	0xbc23d707	-0.009999997
45	0xbc23d701	-0.009999991
46	0xbc23d6ea	-0.00999997
47	0xbc23d707	-0.009999997
48	0x3c23d6ec	0.009999972
49	0xbc23d707	-0.009999997
50	0xbc23d705	-0.009999995
51	0x3c23d708	0.009999998
52	0xbc23d6da	-0.009999955
53	0x3c23d6b5	0.009999921
54	0xbc23d705	-0.009999995
55	0x3c23d706	0.009999996
56	0x3c23d707	0.009999997
57	0xbc23d707	-0.009999997
58	0xbc23d707	-0.009999997
59	0x3c23d708	0.009999998
60	0x3c23d704	0.009999994
61	0xbc23d706	-0.009999996
62	0x3c23d707	0.009999997
63	0x3c23d6eb	0.009999971

conv1.lin.weight f4 [64, 1433]
0	0x3cc66c7e	0.024221655
1	0x3d93d2a2	0.072179094
2	0xbcf188b1	-0.029484125
3	0x3d151420	0.036396146
4	0xbcb8459b	-0.022494128
5	0x3d0cff69	0.034423266
6	0x3d316d02	0.04331685
7	0x3d39abd9	0.045329902
8	0x3cb03bc5	0.021512875
9	0x3c57cb31	0.013171003
10	0x3c1b73bb	0.0094880415
11	0x3d46027c	0.048342213
12	0xbca00534	-0.019533731
13	0xbc5cdb5f	-0.0134800365
14	0x3c1279a5	0.008940135
15	0x3ca9112e	0.020638075
16	0xbd39a048	-0.04531887
17	0x3d506215	0.05087479
18	0xbd313fcc	-0.043273732
19	0x3d4bbe08	0.049741775
20	0x3c39377f	0.011304735
21	0xbd1ede06	-0.038785957
22	0xbb768704	-0.0037617097
23	0xbccbee69	-0.024893956
24	0xbce2feaf	-0.027709333
25	0x3d2c990e	0.04213815
26	0x3c0834bf	0.008313357
27	0xbd4df15e	-0.050279014
28	0xbc2360d4	-0.009971816
29	0x3d3dab8e	0.046306185
30	0x3c9ae921	0.018909993
31	0x3c63a94d	0.013895345
32	0x3d0a10c8	0.03370741
33	0x3d28a088	0.04116872
34	0x3ceb486c	0.028721057
35	0xbcc7f68d	-0.024409557
36	0x3d0a61da	0.033784725
37	0xbcea50a0	-0.028602898
38	0x3bd40e12	0.006471404
39	0x3d3abb86	0.045588993
40	0xbd373197	-0.044725027
41	0x3c42340d	0.01185323
42	0x3d123758	0.03569731
43	0x3c2d5fa5	0.010581885
44	0xbd0ec53e	-0.034856074
45	0xbd544c4d	-0.05183058
46	0xbcca1a7e	-0.024670836
47	0x3c473b5b	0.012160148
48	0x3ca20e0c	0.019782089
49	0xbca66f20	-0.02031666
50	0xbcf0e062	-0.029403869
51	0x3d552517	0.052037325
52	0x3c4f0442	0.0126352925
53	0x3d302510	0.043004096
54	0xbd4da190	-0.050202906
55	0xbc9016c2	-0.017588977
56	0x3d25d7f0	0.040489137
57	0x3d326386	0.043551944
58	0xbd350176	-0.044190846
59	0x3d70b27a	0.05876396
60	0x3b9c9818	0.004778873
61	0xbd243c3a	-0.0400965
62	0x3ccf973e	0.025340673
63	0xbcc9a5c8	-0.024615183
64	0x3d3ff73f	0.04686665
65	0x3cc59397	0.024118228
66	0x392da3c0	0.00016559567
67	0xbc90baf6	-0.017667275
68	0xbd3f7490	-0.046742022
69	0x3c49db75	0.012320389
70	0x3cb2a363	0.021806424
71	0x3d2aa4b2	0.041660972
72	0xbd2c4de1	-0.04206646
73	0x3c593cca	0.013259122
74	0x3b00ba38	0.0019642245
75	0x3d2d5b30	0.04232329
76	0xbcc85464	-0.024454303
77	0x3d57bfa8	0.052673012
78	0xbb951840	-0.00455001
79	0xbc9cccc6	-0.019140612
80	0xbbe72582	-0.007054032
81	0x3c21f0e6	0.009884095
82	0xbcc1128c	-0.023568414
83	0x3d4a358a	0.049367465
84	0xbc48d4d6	-0.012257775
85	0xbc0925e6	-0.008370852
86	0x3d2ab13f	0.04167294
87	0xbcca10ac	-0.024666153
88	0x3d867266	0.065647885
89	0xbd4fea86	-0.05076077
90	0x3c37c71b	0.011216904
91	0x3bb8a1be	0.0056345155
92	0x3a142440	0.00056511536
93	0xbd8051c7	-0.06265598
94	0x3d292071	0.041290704
95	0x3adbe770	0.0016777348
96	0x3d8d7950	0.06907904
97	0xbbe7e350	-0.0070766583
98	0x3d81bbaf	0.06334626
99	0x3d267e00	0.040647507
100	0x3c2f582a	0.010702172
101	0xbd1517ee	-0.036399774
102	0x3d543a21	0.05181325
103	0x3c99f04c	0.01879134
104	0x3d18db84	0.03731872
105	0x3ced2118	0.028946444
106	0xbd6cc72e	-0.05780714
107	0x3c54637b	0.012963171
108	0xbc0166ba	-0.007898027
109	0x3bc6c9d6	0.006066541
110	0x3ca6b5e4	0.020350404
111	0xbd1c1590	-0.0381065
112	0xbca9f596	-0.020746987
113	0xbcff1b9c	-0.031141095
114	0x3c227b16	0.009917041
115	0xbcf8def4	-0.03037975
116	0xbc937618	-0.018000647
117	0xbaaef1b0	-0.0013347175
118	0xbd51db3b	-0.051234465
119	0x3d109299	0.035296056
120	0x3cc1fe47	0.02368082
121	0x3c34d0a6	0.011036074
122	0x3d873fb7	0.066039495
123	0xbd4fa514	-0.05069454
124	0x3c5faed5	0.013652523
125	0x3adeb600	0.0016991496
126	0x3ce73dce	0.028227713
127	0xbd3e373e	-0.0464394
128	0xbd421d7d	-0.047391403
129	0x3cb953ec	0.022623025
130	0x3b41ef84	0.0029592225
131	0x3d18e12d	0.03732412
132	0xbd34431b	-0.04400931
133	0x3d4ee8b0	0.050514877
134	0xbd440b28	-0.047862202
135	0xbbd27e3c	-0.0064237397
136	0xbc74e37d	-0.014946816
137	0xbcdb38aa	-0.026760418
138	0x3d4fdc88	0.050747424
139	0xbc85d2c2	-0.016335849
140	0x3c968cd3	0.018377697
141	0xbca50329	-0.020143108
142	0x3ce7a9b0	0.028279155
143	0x3d22326c	0.039598867
144	0x3b76fb90	0.0037686564
145	0x3d118917	0.03553113
146	0x3c474feb	0.01216505
147	0xbc4efda5	-0.012633716
148	0xbbb85a1a	-0.0056259753
149	0x3cdb56e8	0.026774839
150	0x3d44dc57	0.048061695
151	0x3d51c0fe	0.051209442
152	0x3c30f70d	0.010801089
153	0x3c898d2d	0.01679095
154	0xbb3cef70	-0.002882924
155	0xbc145b51	-0.009054975
156	0xbcb01dd4	-0.021498598
157	0x3d1ec7c4	0.03876473
158	0xbd833517	-0.064066105
159	0xbcc67573	-0.024225926
160	0xbca9b54d	-0.020716334
161	0x3c777f55	0.015106042
162	0x3ce7570c	0.02823975
163	0xbd3ff657	-0.046865787
164	0xbc298cf6	-0.010348549
165	0xbb276214	-0.0025540637
166	0x3aa6e118	0.0012731878
167	0xbd49073e	-0.049079172
168	0x3d84be66	0.06481628
169	0x3d5c5d02	0.053799637
170	0xbc8ac93c	-0.01694166
171	0xbd24845f	-0.0401653
172	0xbc91c2f7	-0.017793162
173	0xbd57b2ba	-0.05266068
174	0xbd06141c	-0.03273402
175	0x3cd62457	0.026140375
176	0x3c1eab66	0.009684419
177	0x3c037991	0.008024589
178	0x3cc0a82d	0.023517692
179	0xbd32a333	-0.04361267
180	0xbca84e28	-0.02054508
181	0xbd596b9a	-0.053081132
182	0x3c4ed8f0	0.012624964
183	0xbbe1de5c	-0.0068929624
184	0x3d55ff80	0.052245617
185	0x3c048572	0.0080884565
186	0xbc499a91	-0.012304918
187	0x3d22166a	0.039572157
188	0xbce827b2	-0.02833924
189	0x3c82690e	0.015919235
190	0xb9c31800	-0.0003721118
191	0xbd07621e	-0.033052556
192	0xbc9f129e	-0.019418057
193	0x3d33776d	0.043815065
194	0x3d4adc79	0.049526665
195	0x3b94feb6	0.0045469655
196	0xbcd73d43	-0.026274329
197	0xbbf620be	-0.0075112274
198	0x3c611119	0.013736987
199	0x3cdeb9cf	0.02718821
200	0x3cd3076b	0.025760373
201	0x3d52e4a0	0.051487565
202	0xbd4600e1	-0.048340682
203	0x3d37eef0	0.044905603
204	0x3a0adf80	0.00052975863
205	0x3be5bfea	0.0070114033
206	0x3ce85ef0	0.028365582
207	0xbd2565ca	-0.040380277
208	0x3c8ab480	0.016931772
209	0xbd3b8106	-0.045777343
210	0x3d2ed810	0.042686522
211	0x3a8b9d98	0.0010651825
212	0xbc1d0731	-0.009584234
213	0xbc180f82	-0.009281041
214	0x3c35dc75	0.011099924
215	0xbcfd4dfb	-0.030920973
216	0xbc3bc246	-0.011459893
217	0xbcc5f5a4	-0.024164982
218	0xbc1b3d3a	-0.009475047
219	0x3d0050c9	0.031327043
220	0xbcb55839	-0.022136794
221	0x3d27cc08	0.040966064
222	0x3d6b1984	0.05739738
223	0x3c2c202b	0.010505716
224	0x3c401f6a	0.01172624
225	0x3c74e997	0.01494827
226	0x3d021190	0.03175503
227	0xbd0e4922	-0.034737714
228	0x3cd4e78a	0.025989313
229	0x3b0f4354	0.00218602
230	0x3c7d1f5a	0.015449369
231	0x3d27720f	0.04088026
232	0x3d0f2738	0.03494951
233	0xbc2882b5	-0.010285069
234	0x3c37d815	0.011220952
235	0xbc7d890e	-0.015474571
236	0xbc915507	-0.01774074
237	0xbc4aafda	-0.012371028
238	0x3b433540	0.0029786378
239	0xbcb457ce	-0.022014525
240	0xbcdd471f	-0.027011452
241	0x3d048b99	0.032359693
242	0xbce0e590	-0.027453214
243	0xbd288454	-0.041141823
244	0x3c163a5e	0.009169189
245	0x3c3ce082	0.011528136
246	0x3d27b0bd	0.040940035
247	0x39dc18a0	0.00041980017
248	0xbd3fdd20	-0.04684174
249	0x3cbe8906	0.023258697
250	0xbcecf9af	-0.028927652
251	0x3c932fb0	0.017967075
252	0x3c4a8e83	0.012363079
253	0xbd152737	-0.03641435
254	0x3c55f3e2	0.0130586345
255	0xbd3c0cff	-0.04591083

conv2.att_src f4 [1, 1, 7]
0	0x3f039635	0.5140107
1	0x3f2d83e0	0.6777935
2	0xbeeb20c1	-0.45923427
3	0xbefba9c5	-0.4915296
4	0xbf248655	-0.64267474
5	0x3f3cde27	0.7377648
6	0xbf12dd3a	-0.57368815

conv2.att_dst f4 [1, 1, 7]
0	0xbf324f77	-0.69652504
1	0x3e86b60a	0.2631076
2	0x3f35f1cc	0.7107208
3	0xbed4ee36	-0.4158799
4	0x3ed6fcad	0.4198965
5	0x3f22d512	0.6360637
6	0x3eed52fc	0.46352375

conv2.bias f4 [7]
0	0xbc23d703	-0.009999993
1	0xbc23d709	-0.009999999
2	0x3c23d6e9	0.009999969
3	0x3c23d708	0.009999998
4	0xbc23d668	-0.009999849
5	0xbc23d707	-0.009999997
6	0xbc23d70a	-0.01

conv2.lin.weight f4 [7, 64]
0	0x3dc43808	0.095809996
1	0x3e0a37ab	0.13497798
2	0xbe124cc9	-0.14287104
3	0x3e2bab51	0.16764571
4	0xbd301374	-0.042987302
5	0x3d84f3c6	0.064918086
6	0x3e8f382a	0.27972537
7	0x3d0810ad	0.03321903
8	0xbe43b056	-0.19110236
9	0xbe330121	-0.174809
10	0xbd955c2d	-0.07292972
11	0xbd92b53d	-0.07163475
12	0xbdbea42e	-0.093086585
13	0xbe52c560	-0.20583105
14	0xbd7a1fcc	-0.06106548
15	0xbd5d5848	-0.05403927
16	0x3e806d0c	0.25083196
17	0xbe97022e	-0.2949385
18	0x3dff9724	0.1248
19	0xbe14072a	-0.14455858
20	0xbdc79799	-0.09745712
21	0x3e793d23	0.24339728
22	0x3d65fcbe	0.056149237
23	0x3a72f5e0	0.00092682056
24	0xbe930220	-0.2871256
25	0x3e7c0f40	0.24615192
26	0x3e7fbea5	0.24975069
27	0x3d7a2463	0.061069857
28	0x3e8cab93	0.2747465
29	0x3e83423b	0.25636467
30	0x3e3422f5	0.1759146
31	0x3e46f77d	0.19430347
32	0xbe12b63c	-0.1432733
33	0xbdee136e	-0.116248
34	0x3db2a770	0.087233424
35	0xbe59047b	-0.21193115
36	0xbdace4fe	-0.08442114
37	0x3e82756b	0.25480208
38	0x3da8ffb2	0.08251895
39	0xbe35209a	-0.17688218
40	0x3e8c0651	0.2734857
41	0x3dbc267f	0.0918703
42	0x3e551b16	0.20811114
43	0xbd0eb4b2	-0.034840293
44	0xbabafb70	-0.0014265608
45	0x3e6302b8	0.22169006
46	0x3e8c83c6	0.27444285
47	0x3d200e01	0.039075855
48	0xbd01ebb4	-0.031718925
49	0xbd63e285	-0.055635948
50	0xbd154cec	-0.03645031
51	0x3e36a14a	0.17834964
52	0xbe1b2fa9	-0.151549
53	0xbe5d47e6	-0.21609458
54	0xbdeb345e	-0.114845976
55	0x3e0d3ba2	0.1379228
56	0x3e10a830	0.14126658
57	0x3e379c79	0.17930783
58	0x3e0bcddf	0.13652752
59	0x3cccde2e	0.025008287
60	0x3e819d26	0.25315207
61	0xbe559448	-0.20857346
62	0xbcc32c75	-0.02382491
63	0xbe2f2790	-0.17104936
64	0x3e863e13	0.26219234
65	0xbe427b4f	-0.18992351
66	0xbd98e9d5	-0.07466475
67	0xbe73a407	-0.2379304
68	0xbe2955c5	-0.16536625
69	0xbdf9452d	-0.12171397
70	0x3e7bf633	0.24605636
71	0x3a6e73e0	0.0009096246
72	0x3e4ea758	0.20181024
73	0x3b8585aa	0.004074772
74	0xbde48a06	-0.111591384
75	0x3e0c2cc1	0.13688947
76	0x3d125bde	0.035732143
77	0x3d0a35da	0.033742763
78	0x3e28651e	0.16444823
79	0xbe4a5139	-0.19757546
80	0xbdd5d1bd	-0.10440395
81	0xbe308e1e	-0.17241713
82	0x3e67f1e5	0.22650869
83	0xbd9fb3bf	-0.07797956
84	0xbd6c322c	-0.057665035
85	0x3e5f8253	0.21827058
86	0xbe8ba117	-0.2727134
87	0x3cb96b68	0.022634223
88	0xbe44a80d	-0.19204731
89	0x3e803b76	0.25045365
90	0xbd88a1ed	-0.0667151
91	0xbdb52028	-0.08844024
92	0x3ceeb542	0.029139165
93	0x3e83dc58	0.25754046
94	0x3da3c553	0.07996621
95	0x3e38f0db	0.18060629
96	0xbe50d700	-0.20394516
97	0xbdc648ec	-0.096818775
98	0x3e0c4ad5	0.13700421
99	0xbd0e3d0c	-0.034726188
100	0xbe424de0	-0.1897502
101	0xbb613d1c	-0.00343687
102	0x3e78c47a	0.242937
103	0xbe7a8218	-0.2446369
104	0xbe7b3f08	-0.24535763
105	0xbe55f70d	-0.20895024
106	0x3e8f2423	0.27957258
107	0x3ddd0e24	0.10793713
108	0xbe179c30	-0.14805675
109	0xbe2f61e3	-0.17127185
110	0x3e45a478	0.19301021
111	0x3e07be25	0.13256128
112	0x3e414404	0.18873602
113	0x3d37f6b8	0.044913024
114	0x3e64f695	0.22359689
115	0x3e387b40	0.18015766
116	0xbe0398af	-0.12851213
117	0x3def8611	0.11695493
118	0x3e7c2ca1	0.246264
119	0x3e891500	0.26773834
120	0xbe8c6e38	-0.2742784
121	0xbe9542ae	-0.29152435
122	0x3e120c37	0.14262472
123	0xbe22486f	-0.15847944
124	0x3c051669	0.008123019
125	0x3db7307e	0.08944796
126	0xbe62a1ee	-0.22132084
127	0xbdc7ee96	-0.097623035
128	0xbdaa3c38	-0.08312267
129	0x3e0369cb	0.12833326
130	0x3ddbce80	0.10732746
131	0x3e7b916e	0.24567196
132	0xbe5168fb	-0.20450203
133	0xbd8e48c0	-0.0694747
134	0xbe8d7837	-0.2763078
135	0x3e8e67fc	0.2781371
136	0xbe6ce2c9	-0.23133387
137	0xbcc586cf	-0.024112133
138	0x3e2d651a	0.16933098
139	0xbe7fb66a	-0.24971929
140	0xbd68fb2a	-0.056880154
141	0xbe164c6a	-0.14677587
142	0x3e294ab2	0.165324
143	0x3e480678	0.19533718
144	0x3db56e68	0.08858949
145	0x3e241db5	0.16026957
146	0x3daab447	0.083351664
147	0x3ceb6271	0.028733464
148	0x3e5a4f11	0.21319224
149	0x3d139b49	0.036036763
150	0xbe8786fe	-0.26470178
151	0xbe69b274	-0.2282198
152	0xbe7d4545	-0.24733455
153	0x3dc6b552	0.09702553
154	0x3e137e95	0.14403756
155	0xbdeb12ca	-0.11478193
156	0xbe2e61de	-0.17029521
157	0xbdaa811f	-0.08325409
158	0xbd542243	-0.051790487
159	0xbdeb4e29	-0.11489517
160	0xbd31feb9	-0.043455813
161	0xbd855e38	-0.065121114
162	0x3d6ca2d2	0.057772465
163	0xbdbe29d7	-0.09285324
164	0xbd3fc998	-0.046823114
165	0x3e31ec7a	0.17375365
166	0x3e7626cc	0.24038237
167	0xbe20a439	-0.15687646
168	0xbe46a358	-0.19398248
169	0xbe7f4283	-0.24927716
170	0xbd270bf4	-0.040782884
171	0x3e1bc044	0.15210062
172	0x3e3a65a9	0.18202843
173	0xbd9f9a2b	-0.07793077
174	0x3da1653f	0.07880639
175	0x3df6c862	0.12049939
176	0x3e0f39bd	0.13986869
177	0xbe659a54	-0.22422153
178	0x3e6a129a	0.22858658
179	0xbd960b4f	-0.07326376
180	0xbe471e6a	-0.19445196
181	0x3e507a7f	0.20359229
182	0xbe374a3d	-0.17899413
183	0xbe8e4c4f	-0.27792594
184	0xbdd94eee	-0.10610758
185	0xbe7308b9	-0.23733796
186	0xbe5b9502	-0.2144356
187	0xbd814093	-0.06311145
188	0x3d2e8bf9	0.042613957
189	0xbd970244	-0.07373479
190	0xbbcc64c8	-0.0062376
191	0x3e88da85	0.26729217
192	0x3e417be6	0.1889492
193	0x3ca2e093	0.019882476
194	0x3c5dac6e	0.01352988
195	0x3e8bebd1	0.2732835
196	0x3e30cf52	0.17266586
197	0x3e6cfed9	0.23144092
198	0xbe21237c	-0.15736192
199	0xbd56b2e5	-0.0524167
200	0x3e0dac09	0.13835157
201	0x3d555d1b	0.052090745
202	0x3de9068d	0.113782026
203	0x3e74ad83	0.23894314
204	0x3ca910e0	0.02063793
205	0x3e804362	0.2505141
206	0x3e322d48	0.17400086
207	0x3e2d4b4a	0.16923252
208	0x3a35b930	0.0006932197
209	0x3e67f410	0.22651696
210	0x3df170d5	0.11789099
211	0xbdea7ab9	-0.11449189
212	0xbd107531	-0.035268012
213	0x3d56312a	0.05229298
214	0x3dc8f897	0.0981304
215	0x3cc9fa54	0.024655499
216	0x3e7e1fde	0.24816844
217	0x3e1df355	0.15424855
218	0xbe4d2f39	-0.20037545
219	0x3d752192	0.05984647
220	0x3d05687d	0.03257035
221	0x3e83fcf5	0.25778928
222	0xbddd475a	-0.10804625
223	0xbe020375	-0.12696631
224	0x3c4a2e15	0.012340088
225	0x3e58f4e1	0.21187164
226	0x3d9879dd	0.074451186
227	0xbd47a66e	-0.048742704
228	0x3da317aa	0.07963498
229	0xbe857a2f	-0.2606978
230	0xbe313f0c	-0.17309207
231	0x3e8c66be	0.27422136
232	0xbe64e8c7	-0.22354423
233	0x3e66fc23	0.2255712
234	0x3e386426	0.18006954
235	0xbe5c7132	-0.21527556
236	0xbe7783b5	-0.24171336
237	0xbe18b0e4	-0.14911228
238	0xbde28c11	-0.11061872
239	0xbd24539c	-0.0401188
240	0x3e2a0714	0.16604263
241	0xbe7918ba	-0.24325839
242	0xbe0ca4b5	-0.13734706
243	0x3e853c8c	0.26022756
244	0xbe67e7e0	-0.22647047
245	0x3bdb0652	0.006684103
246	0x3c3bc8a1	0.011461408
247	0x3dedc7b3	0.11610355
248	0x3da53cda	0.08068247
249	0xbe92b445	-0.2865316
250	0xbde3d417	-0.11124437
251	0x3e7a0f6c	0.24419945
252	0x3e34a903	0.17642598
253	0xbd83e69c	-0.064404696
254	0x3e83fdf6	0.25779694
255	0xbddd957f	-0.1081953
